lightning_logs/version_2/checkpoints/epoch=2-step=1029.ckpt (torch, 49738 bytes, 51 tensors)

model.lstm.weight_ih_l0 f4 [32, 8]
000000 25 8a 24 3f 75 b7 18 3e 2b 39 a3 3e 99 83 1e 3f
       0.6427329 0.14913733 0.31879553 0.6191955
000010 c0 e8 3b 3f 55 ff 01 3c d8 c4 15 bf 0e 36 0a 3f
       0.73402023 0.007934411 -0.58503485 0.5398873
000020 58 e2 15 3f 74 63 35 3f b2 13 5f 3f 35 56 2c 3f
       0.585485 0.7085488 0.8713943 0.6731904
000030 c3 ff 0f 3e fa 99 8e 3e f7 9e 35 bf 34 fd b6 3f
       0.14062409 0.2785185 -0.70945686 1.4296021
000040 9e 16 cc be 98 20 ed 3c dd 03 76 3e 2b b2 81 be
       -0.39861006 0.028946206 0.24024911 -0.25331244
000050 af 8a 10 be 42 91 c4 bd 57 60 84 bf 07 59 9e 3f
       -0.14115404 -0.09598018 -1.03419 1.2370919
000060 5a 3b 15 3f d5 b9 05 3f 9e 88 5c 3f 8a e7 c8 3e
       0.5829369 0.5223668 0.8614596 0.3923915
000070 7d b2 c0 3e 94 85 99 be 78 2f 7f bd c8 d3 d9 3e
       0.37636176 -0.29984725 -0.06230113 0.4254439
000080 ca 98 0e 3c 96 a1 34 bd ae f2 39 be 04 74 41 be
       0.00870342 -0.044099413 -0.18158981 -0.18891913
000090 2f 58 36 bf 23 8d 9c 3d c7 b3 36 3e 37 e5 1e bf
       -0.7122831 0.07644107 0.17842017 -0.62068504
0000a0 c0 60 88 be 7f 67 a2 3d f2 16 f5 bd 7b 1c f3 3d
       -0.26636314 0.079298966 -0.11967267 0.118706666
0000b0 c4 61 ce 3d bc ad 1a 3f 93 48 04 be c2 3d 89 3f
       0.10077241 0.6042135 -0.1291831 1.0721972
0000c0 8a 4d b8 3c ae 00 29 3e b6 37 ff 3e 08 58 ac be
       0.022497911 0.16504166 0.49847192 -0.33660913
0000d0 b9 c1 0e 3d db 21 17 bf ed 73 ba be 2d 10 01 bf
       0.034852717 -0.59036034 -0.3641657 -0.5041531
0000e0 f0 17 83 3e 99 62 41 3d aa cf d4 3d 82 ce e9 3c
       0.256042 0.04721317 0.10391171 0.028540853
0000f0 f9 80 98 be 9c ff ed bd 05 0f 63 3e c1 71 cb be
       -0.29785898 -0.11621019 0.22173698 -0.39735225
000100 aa a6 3d be f0 e9 ba bd 7b 1a 02 bd 73 fb da bd
       -0.18520609 -0.09126651 -0.031763535 -0.106924914
000110 93 82 1f 3d 40 1c 89 be 1c 52 b8 bf d2 f7 0e bf
       0.038942885 -0.26779366 -1.4400058 -0.55846894
000120 09 5d 7a be 13 79 6a bf d6 b3 97 3c 4d fe 53 bf
       -0.24449553 -0.91590995 0.01851837 -0.8280991
000130 ad 50 35 bf 39 6e fa be 05 42 87 bf 24 79 0a 3f
       -0.70826226 -0.48912218 -1.0567023 0.54091096
000140 6a 04 0a bf 2c f2 a9 3d eb a1 98 be a1 94 bf be
       -0.53912985 0.08298144 -0.29811034 -0.37418082
000150 a8 b9 3a be 77 4f 41 3d 7b 66 81 bf 7d 9d 82 3f
       -0.18234885 0.047194924 -1.01094 1.0204312
000160 36 99 e0 be c3 75 b0 be 8c c4 32 be cf ba 19 bf
       -0.4386689 -0.34464845 -0.17457789 -0.6005067
000170 7b a2 bd 3e 14 02 a7 be 8b c4 b1 be ed ab 56 bf
       0.37038025 -0.32618773 -0.34720263 -0.8385609
000180 0f a2 80 3e 13 96 c9 3d 6a 83 57 bd 47 34 89 3d
       0.2512364 0.098430775 -0.05261556 0.06699424
000190 fd 2a 98 be 15 ab 88 3e 36 cd 86 bc a3 ba 51 bf
       -0.29720297 0.26693025 -0.016455274 -0.8192541
0001a0 60 78 c0 3e f4 70 b7 be f7 d8 4d 3e 8f ea 8a be
       0.3759184 -0.35828364 0.20102297 -0.2713208
0001b0 8b 73 1d 3d 31 49 1f bf 77 96 25 3f 87 c2 49 3f
       0.03844027 -0.62221056 0.64682716 0.7881245
0001c0 d9 65 b6 be 2c 02 13 be 30 a5 42 be ae 87 35 bf
       -0.3562458 -0.14356297 -0.19008327 -0.70910156
0001d0 70 2e 99 3d 62 1a 13 bf 66 34 64 bf 7b 23 e9 bf
       0.074795604 -0.5746213 -0.89142454 -1.8213953
0001e0 33 ba 37 3e 76 fd 06 bf c4 4a 5d be 85 43 a8 3d
       0.17942123 -0.527305 -0.21610552 0.08216003
0001f0 ce 68 4e be f0 2e 1a 3d 2d 63 95 be 9e 83 1c bf
       -0.20157167 0.03764242 -0.29177228 -0.6113833
000200 cd 27 00 3e c4 37 f3 bd 35 ac 78 bd fd 0c 07 3c
       0.12515183 -0.11875871 -0.060711104 0.008242843
000210 e2 eb 75 bd e7 73 bd bc 7f da 6e be 93 af 96 3f
       -0.06003941 -0.023126556 -0.23325537 1.1772331
000220 ac 4c 3b be 75 32 5e 3e f2 c9 07 3e 07 82 10 bd
       -0.18290967 0.21698935 0.1326063 -0.035280254
000230 3d 90 a3 bd 64 77 bc 3c 36 1d 60 3e 11 77 0e c0
       -0.07986496 0.023006149 0.21886143 -2.2260172
000240 64 4e 7f 3d 0b cf 3e 3e b7 cb c2 3d ed 2f f9 bd
       0.06233062 0.18633668 0.09511512 -0.12167344
000250 a3 ab 0a 3f 4d fe 5b be 72 3e 30 3f 7d 2b b9 bf
       0.54168147 -0.21483727 0.68845284 -1.4466397
000260 27 6d 60 be 7e 26 36 3e ae cf 76 3d 35 7d 06 bb
       -0.21916638 0.17788121 0.060256653 -0.0020521407
000270 58 fb 83 3c 60 af 1a bd fa e7 33 3d 06 bb c5 bf
       0.016111061 -0.037764907 0.043922402 -1.54477
000280 ec 01 0d be 50 5e 7a 3c b4 13 af 3e 52 55 cb 3d
       -0.13770264 0.015281275 0.3419472 0.09928383
000290 d1 1a 2e be d8 eb 7f be fd ca bc be 4a 4a 8c 3f
       -0.17002417 -0.24992311 -0.36873618 1.0960171
0002a0 21 1f 1d be e4 46 ca 3e 32 28 48 3e 56 36 28 be
       -0.15343906 0.3950721 0.19546583 -0.16426978
0002b0 88 68 fe 3e 19 02 2b 3e 28 9e 3e 3d 34 35 0b 3e
       0.49689126 0.16700019 0.04653755 0.13594514
0002c0 1c 5f 5a b9 b1 ce 8e bd 90 cf 83 be 6f ba 75 bd
       -0.00020825531 -0.06973017 -0.25744295 -0.05999225
0002d0 69 06 03 3e 49 ff b4 bc eb 53 32 3e a4 fe 12 40
       0.12795414 -0.022094386 0.17414825 2.296792
0002e0 3d 8d c9 3e cb 43 b0 be 2f 83 ae 3d 78 cd 0f be
       0.3936557 -0.34426722 0.08521115 -0.14043224
0002f0 81 be a2 bd e8 7c a8 3e a4 61 ac be 17 a7 85 bf
       -0.07946492 0.32907796 -0.33668244 -1.0441617
000300 e8 2a 4b 3e bb 7f 36 3f 2a 45 3c 3f 14 bf d3 3d
       0.19840586 0.7128865 0.73543036 0.1033918
000310 93 73 7c 3e db c6 a5 bb 20 b5 fe be 24 d3 95 3e
       0.24653463 -0.005059106 -0.49747562 0.2926265
000320 30 c4 4e 3e 44 96 db 3d b9 97 61 3f de 0a 5b be
       0.20192027 0.1072202 0.88122135 -0.21390864
000330 c5 1b 0d be 06 55 2c 3e 0e d2 68 bf 10 12 cd 3f
       -0.13780124 0.16829309 -0.9094552 1.6021137
000340 cc fb 55 3d b7 fb 5d 3e 3a 37 2c 3e 4e 2d b4 3e
       0.052242085 0.21678053 0.16817942 0.35190815
000350 f0 82 57 bd bf 19 7c bc 38 9b 6f bf 00 63 4a 3f
       -0.052615106 -0.015386998 -0.9359622 0.7905731
000360 f6 7a b3 3e ff 94 41 3f b8 1f 6b 3f 40 e3 79 3e
       0.3505475 0.75617975 0.91845274 0.24403095
000370 d4 2e 69 3f 5b 21 01 bf 12 a7 11 3e f1 c7 bc 3e
       0.9108708 -0.5044152 0.14223889 0.36871293
000380 56 90 ef bc f1 a8 a2 be 9a 12 cf 3c 11 01 a2 3d
       -0.02924363 -0.31769517 0.025277425 0.0791036
000390 bb dd 25 bf 6f 27 05 be 06 8e 43 be 2f 63 09 bf
       -0.6479146 -0.13003324 -0.19097146 -0.5366697
0003a0 da 69 2c be ee 30 fa bc a0 e9 91 be 74 71 db 3d
       -0.16837254 -0.03054091 -0.28498554 0.10714999
0003b0 5a 75 0f 3e da 06 99 3e 74 55 13 3f 5e b3 08 3f
       0.1400961 0.2988804 0.57552266 0.5339869
0003c0 0a bd 59 3e 65 e3 3b 3e 1c 11 68 3e c0 03 fd 3d
       0.21263519 0.18348463 0.22662777 0.12354231
0003d0 66 93 33 bd 61 5d 39 be 1c c9 86 bf 26 5d 25 bf
       -0.043841742 -0.18102027 -1.0530124 -0.6459526
0003e0 a4 b0 01 3d 7c 02 68 be e3 87 5b be fd bc 68 3e
       0.0316626 -0.22657198 -0.21438555 0.22728343
0003f0 06 a8 38 bd 7f dc 11 3e c3 fe 08 3f e1 a4 87 bf
       -0.045082115 0.14244269 0.53513736 -1.0597192

model.lstm.weight_hh_l0 f4 [32, 8]
000000 49 c1 17 bf 8b 08 10 be e2 fe 0a be 70 5f 13 3f
       -0.59279305 -0.14065759 -0.13573793 0.575675
000010 d9 ea e6 be 4f 4e ff be 28 4e 88 bd b3 44 f1 3e
       -0.4510105 -0.49864432 -0.06655532 0.47122726
000020 68 7f fa 3e 91 20 83 be bb 67 07 bf d0 e7 06 bf
       0.48925328 -0.25610784 -0.52892655 -0.5269747
000030 a8 30 ca bc 77 ba 3e bf eb 17 21 bd 58 31 1f 3e
       -0.024681404 -0.7450327 -0.03932945 0.15546167
000040 7e 7c 2f bd a3 5f c8 3d 1d 3f ac be a6 b0 4f be
       -0.042843334 0.09783866 -0.33641902 -0.2028223
000050 a8 6c b4 3e bb 1c 74 be fb 1b 8f 3d 08 15 a3 be
       0.35239148 -0.23839085 0.06987759 -0.31851983
000060 ef e8 a1 bd 5e 89 a0 be bb b8 36 bf d3 34 0e 3f
       -0.07905757 -0.31354803 -0.71375626 0.55549353
000070 21 a5 c3 be e2 72 8f bf 9f 35 16 bf d6 d5 5f 3f
       -0.3821192 -1.1206934 -0.5867557 0.8743566
000080 73 97 cb 3e af 86 05 be 9c a2 66 3d 92 2e f8 bd
       0.39763984 -0.13039659 0.05630742 -0.121182576
000090 f6 fb 84 3e ff 3e ad be b7 af d9 3c 61 43 65 3e
       0.2597348 -0.33837125 0.026573045 0.22388984
0000a0 8f 48 3a 3f fe 56 6d bf 0e a9 85 be bf bc 5d bf
       0.72766966 -0.92710865 -0.2610554 -0.8661613
0000b0 ac 51 22 3d c3 5f ae be a3 20 93 3e 19 28 7c be
       0.03962867 -0.34057435 0.28735837 -0.24624671
0000c0 57 8d 74 3e a8 11 15 3d 93 34 08 bf 7e 1f d3 bc
       0.23882042 0.03639379 -0.5320522 -0.025771853
0000d0 61 85 27 be 5c 1d 0d bf 2c f3 e5 bd 63 94 58 bd
       -0.16359474 -0.55122924 -0.11228022 -0.052875888
0000e0 1f 56 1b 3e 4d 91 eb bc f2 c6 9c be 5f 00 27 be
       0.15169571 -0.028755808 -0.30620533 -0.16308735
0000f0 d6 b2 d3 3e 47 8a 89 be ef 03 06 3e 80 89 30 be
       0.41347378 -0.2686331 0.13087438 -0.17239952
000100 06 92 35 bf 3b 67 2b be be 41 e0 3e dc f8 c6 3e
       -0.7092594 -0.16738598 0.43800157 0.3886174
000110 df 72 59 3e 2a 05 0f 3e 58 ca 80 3d 77 c8 e8 3d
       0.21235226 0.13966814 0.06288594 0.11366361
000120 02 c7 2e 3e 55 ca 0f 3f 98 c1 b7 3e 8a 5a db bc
       0.17068103 0.5616811 0.35889888 -0.02677657
000130 64 92 17 3f e4 10 bf 3c 42 75 02 be 00 77 53 be
       0.5920775 0.023323484 -0.12740043 -0.20650864
000140 fb 8c 28 bd 03 b1 14 3d ac e7 d4 3e e8 1c 44 3d
       -0.041150074 0.036301624 0.41583002 0.04787913
000150 06 e3 d6 3c e9 06 08 3e 97 e6 6e bd 66 65 93 be
       0.0262313 0.13283886 -0.058325376 -0.28788298
000160 d1 57 86 bd 3e 10 91 3e 6a e7 6b 3d 28 33 d6 3e
       -0.065597184 0.28332704 0.05759374 0.41835904
000170 e1 9d b9 3d 9a 49 87 be db f0 a3 be 82 98 9b 3e
       0.09063316 -0.2642334 -0.32019696 0.30389792
000180 5b 68 17 3e b9 13 29 3e 4c 8a 21 bd a1 eb 20 bf
       0.14785902 0.1651143 -0.03943853 -0.6285954
000190 9f fb 1c 3e 86 40 c9 3e d3 9d 4d be 3a 3b f8 be
       0.15330361 0.3930704 -0.20079736 -0.48482686
0001a0 f0 c9 6a 3f 1e 1b 50 be 3c c9 ea be 5d 44 3b bf
       0.9171438 -0.20322844 -0.45856655 -0.7315119
0001b0 0d 98 39 3f e4 b2 6c bc 5f af 6a 3f b1 79 43 be
       0.72497636 -0.014446948 0.91673845 -0.1908939
0001c0 58 f5 ec be 5b d5 97 3f 6f 5c 1b 3f c6 37 c5 3e
       -0.46280932 1.1861986 0.6068792 0.38519114
0001d0 98 72 21 be e3 1e 84 3f ba ed 30 bf b0 73 97 bd
       -0.1576637 1.0321926 -0.6911274 -0.073951125
0001e0 f0 53 70 3e aa 07 74 be 72 e9 a2 be 03 bd 02 3e
       0.2346952 -0.23831049 -0.3181873 0.12767415
0001f0 9b 38 ad 3e 7a 79 d6 3d 2c 9e c7 3e fe 85 5f 3d
       0.3383225 0.104723886 0.38987863 0.054571144
000200 9c aa 67 be 53 87 a3 3e e2 b5 67 3e 6a a1 9b be
       -0.22623676 0.31939182 0.22627977 -0.30396587
000210 a5 88 4f 3e 66 bd 70 3e 0c be 81 bd 60 f2 e4 bb
       0.2026697 0.2350975 -0.06335077 -0.006986901
000220 ec db ad be fd f5 5c bf 6b 0c a9 be 4d b5 b9 bd
       -0.3395685 -0.8631285 -0.33017287 -0.090677835
000230 67 82 58 be 57 8d a4 be 99 03 10 3f b5 69 f0 3d
       -0.21143495 -0.32139084 0.5625549 0.11738912
000240 83 82 61 3e e5 6d 07 3e b3 0f 08 bf 4f 42 80 be
       0.22022443 0.13225515 -0.53148955 -0.2505059
000250 c5 2a 8b bd 97 3d f7 be 98 d2 ec bd 8b 3b 2a 3e
       -0.06795267 -0.48289177 -0.11563605 0.16624276
000260 8d 5c bc 3e 5c 96 b2 be e8 d0 60 3e 88 31 f6 be
       0.3678936 -0.3488034 0.21954691 -0.48084664
000270 8f 1a a2 be f8 d0 f0 be d7 8f 36 3e a4 35 f0 3e
       -0.31660888 -0.4703443 0.17828308 0.46915925
000280 01 b7 4f be c2 7b 6f 3e af 0e 9a be d7 9e af 3e
       -0.20284654 0.23387054 -0.30089328 0.34300873
000290 5c 18 6b be 9b d6 21 bc 6e 4f b7 be 13 c9 3c 3c
       -0.22958511 -0.009877826 -0.35802788 0.011522549
0002a0 63 96 8d bf e4 6a 06 3f 66 7e 75 3e f9 e6 90 3f
       -1.1061519 0.5250685 0.23973998 1.1320487
0002b0 6a b6 aa be db 9e 08 3d b2 ed 06 bf ff 3f 46 3e
       -0.33342296 0.03335462 -0.52706444 0.1936035
0002c0 80 00 d1 be 37 63 1d be a8 eb 03 3d 89 75 07 be
       -0.40820694 -0.15369879 0.03220716 -0.1322843
0002d0 0a 31 58 be 04 af 5d 3e 76 bf 88 bf 92 84 18 3b
       -0.21112457 0.21648794 -1.0683429 0.0023272377
0002e0 26 de 69 3e 50 69 20 bf a1 00 74 3d 46 ab 1c bc
       0.22838649 -0.62660694 0.059570912 -0.009562319
0002f0 37 36 14 be 10 cd a9 bd be 79 f6 3e 7d f3 11 bd
       -0.14473806 -0.08291066 0.48139757 -0.0356326
000300 c9 57 09 bf bf 66 96 be 05 e7 2b bf b9 42 c2 3e
       -0.53649575 -0.29375264 -0.6714938 0.3794153
000310 58 4b d0 be ff 4c 30 bf 80 bf af be 00 b5 32 3e
       -0.40682483 -0.68867487 -0.3432579 0.17451859
000320 bc 8e 2b 3f 0b 3f 4b be d6 d4 db be 67 8f b1 be
       0.6701467 -0.19848268 -0.42935818 -0.3467972
000330 c6 b5 06 3f 75 8b 11 bf ba 96 a0 bd fb 8b d1 3d
       0.52621114 -0.5685342 -0.07841249 0.10231777
000340 5e 02 bf be e8 89 c6 be e0 32 64 be 02 b4 77 3e
       -0.37306494 -0.3877709 -0.22285032 0.24189761
000350 db 5a 99 be 17 48 d6 be d1 82 56 be a6 69 99 be
       -0.2995213 -0.41851875 -0.2094834 -0.29963416
000360 c3 f1 b1 bd 69 cb 39 bf 33 21 7a bf 81 a3 b7 3e
       -0.086886905 -0.72576004 -0.9770691 0.3586693
000370 1c d6 8d be 33 15 4b bf 15 fb 47 bf c5 b2 69 3f
       -0.27702415 -0.7932922 -0.78117496 0.91288406
000380 96 76 95 3e d8 c9 c4 be 01 c8 fb bd d2 80 0f be
       0.29192036 -0.38435245 -0.12294007 -0.14013985
000390 43 95 50 3e 48 80 b3 be 9c 13 c5 3b dd 57 4b be
       0.20369439 -0.35058808 0.0060143005 -0.19857736
0003a0 8b d3 66 3f 91 31 10 bf 94 8b f9 bd 2d 58 ab be
       0.9016654 -0.5632563 -0.121848255 -0.3346571
0003b0 2c 27 fe 3e 51 99 04 3e 43 e9 e9 3e a0 7a 1f be
       0.4963926 0.1294911 0.45685777 -0.15574121
0003c0 ca 73 09 be 42 73 8d be 70 8d c9 bd 90 01 db 3d
       -0.13423076 -0.27626997 -0.0984143 0.106936574
0003d0 35 2d dc 3c 70 a4 32 bf ad ee 2d 3e ae bf 16 3e
       0.026877025 -0.6978216 0.16985579 0.14721557
0003e0 ff c1 c8 bd a8 8d a3 3d 74 52 88 3d ed 13 5b be
       -0.09802627 0.07986003 0.06656352 -0.2139432
0003f0 47 c1 c3 3e 68 57 a1 3d 3d 59 2f bd c8 d2 17 3d
       0.38233396 0.078779995 -0.042809714 0.03706625

model.lstm.bias_ih_l0 f4 [32]
000000 62 54 6d 3e c7 87 f7 3e 0f d4 31 be 99 e9 59 3f
       0.2317672 0.48345777 -0.1736605 0.85122067
000010 86 6e 23 be de 41 68 3e 4c 7d 38 3d a5 6b 73 3e
       -0.1596013 0.22681376 0.045041367 0.23771532
000020 97 06 19 bf 98 06 ef be 12 4b 00 3e 5b 45 64 be
       -0.5977568 -0.46684718 0.12528637 -0.22292082
000030 90 70 a7 be 51 3f 3e 3e 0d 87 dc be 0c af 97 3d
       -0.32703066 0.18578841 -0.43071786 0.074064344
000040 a9 81 5b be 29 f6 80 3e 39 d3 81 3d 40 24 1d be
       -0.2143618 0.25187805 0.06339116 -0.1534586
000050 68 0a 01 be e2 85 f1 bc a1 31 69 3e 6a af 3c 3d
       -0.12601626 -0.029482786 0.22772838 0.046065725
000060 8b 4a 88 3e c3 9c 56 3f 6d 8f c3 3e 76 da 87 3f
       0.26619372 0.8383295 0.38195363 1.0613544
000070 d5 5a 25 bd 18 1d 81 3d 08 4f 35 3f 8c 0b 8f 3e
       -0.040369827 0.06304377 0.7082372 0.27938497

model.lstm.bias_hh_l0 f4 [32]
000000 d3 74 10 3f 08 13 2c 3f cd da 78 3e 75 01 16 3f
       0.5642826 0.6721654 0.24302216 0.58595973
000010 a4 21 4c 3e 54 3a 89 3e 5c 5b f2 3e aa bd 9b be
       0.19934708 0.26802313 0.47335327 -0.3041814
000020 24 ce a4 3c 79 c2 34 be 2e 97 e9 bd 2a 0b e7 bc
       0.020117827 -0.1765231 -0.11405788 -0.028203566
000030 a7 b0 d4 bb e3 67 50 3e ac 40 f2 be 2a eb 8e be
       -0.006490785 0.2035213 -0.47314966 -0.2791379
000040 48 cc c3 3d 0a 93 0a bd 51 cc f8 bc 03 64 a7 3e
       0.09560448 -0.033831634 -0.030370863 0.3269349
000050 09 29 29 be 26 3f b3 bd b9 da b0 be bb 0b 19 3e
       -0.1651956 -0.08752279 -0.34541872 0.14945881
000060 71 3b 00 3f 88 2b f2 3e b8 e4 b4 3e 9a 2f 85 3f
       0.500907 0.47298837 0.3533075 1.0405152
000070 f9 0e e5 3d 1b 81 7b 3e 26 78 08 3e 0e be c2 be
       0.111844964 0.24560969 0.13327083 -0.38035625

model.lstm.weight_ih_l1 f4 [32, 8]
000000 32 9e ca bc bf 48 b2 be 18 81 2e bd b5 d8 be 3e
       -0.024733637 -0.34821126 -0.042603582 0.3727471
000010 1c ee de 3c a7 8e 86 be d0 91 29 3e 08 9e 8e bd
       0.027213149 -0.2628071 0.1655953 -0.06963736
000020 9c 7e 80 bf a2 7a d8 3e d8 43 05 bf ef 86 f6 3e
       -1.0038638 0.4228106 -0.52056646 0.4814982
000030 11 7c 98 bc a2 be 93 be 36 e1 55 bf 07 18 8f 3e
       -0.018613847 -0.2885638 -0.8354677 0.2794802
000040 fe 78 99 be c0 f2 12 3a 4a 56 26 be 24 b0 b3 b9
       -0.29975122 0.00056056306 -0.16243854 -0.00034272776
000050 38 d7 c8 3e 8c 61 47 3d 68 58 b8 3c a9 a6 91 3e
       0.392267 0.048677012 0.022503093 0.28447464
000060 93 5e 72 be 26 d3 8d 3d 7d ff 06 bf 68 2f 05 bf
       -0.2366889 0.06925039 -0.52733594 -0.5202546
000070 40 77 22 3f 8f 89 7f 3e ee 63 ce 3d fe 13 c9 3e
       0.6346321 0.24954818 0.10077654 0.39273065
000080 24 30 bb bd fe c0 82 bd 2a b0 a7 be f9 7e 85 3e
       -0.091400415 -0.063844666 -0.3275159 0.26073435
000090 81 77 c2 bd b6 cd dd bc c4 1d b2 3d 8e c3 41 3e
       -0.0949545 -0.02707563 0.086970836 0.18922254
0000a0 9a b8 da be a0 1d c1 be 52 4f d6 be 86 e4 27 be
       -0.42718965 -0.37717915 -0.41857392 -0.16395769
0000b0 8c 64 6e be c5 79 5e bf 3a 63 95 be f4 ce 5c bd
       -0.23280543 -0.86904556 -0.29177266 -0.053908303
0000c0 cd 62 8a be d5 b5 48 3e 3d 00 d4 3e 15 e3 0f 3f
       -0.27028504 0.19600613 0.41406432 0.56205875
0000d0 5b 4e 98 bc dd 3e 26 bc 70 7f 4b be 90 9a 8f 3e
       -0.01859205 -0.010146824 -0.19872832 0.2804761
0000e0 94 ef 5a bd f9 66 f3 be ef 7d 91 be 8b dd b7 be
       -0.053451136 -0.475395 -0.28416392 -0.3591121
0000f0 f8 92 9b 3e 26 17 f4 bc c6 89 a4 bd db 4e a8 3d
       0.30385566 -0.029796194 -0.08034091 0.082181655
000100 58 ac 3c be b2 3e 57 3c 7b 31 5d 3b b7 4b 34 3d
       -0.18425119 0.013137506 0.0033751416 0.04401752
000110 23 a8 fc 3e 5e 34 b0 3d fc 41 c5 3e 3a 9b b0 be
       0.49347028 0.08603738 0.38526905 -0.34493428
000120 39 80 0d bf f2 c1 41 3f bd c9 9f 3e 81 ab 7c 3e
       -0.5527378 0.7568656 0.31208602 0.24674799
000130 d6 56 6d 3f c8 54 27 3f b3 fe 60 3e 89 a2 23 bf
       0.92710626 0.6536374 0.2197216 -0.63919884
000140 ba e7 85 be 0f e9 1e be ef 95 18 3d 3d 0f 96 be
       -0.26153356 -0.15518592 0.037252363 -0.293085
000150 9a db ac 3e 32 db d9 be 7b fd 45 bd df 89 53 be
       0.33761293 -0.42550045 -0.04833744 -0.20658062
000160 db dd ea bd 63 a8 32 3e 1c dc 0a 3e bd 47 44 bf
       -0.11468097 0.17447047 0.13560528 -0.76671964
000170 3d 47 a4 3f 8d 28 9d 3e e6 61 62 3e 2d 6d 89 be
       1.283424 0.30695 0.22107658 -0.26841107
000180 3f a6 28 bd 46 bc e4 3e 80 c2 98 3e 6e 0f 1b be
       -0.04117417 0.4467489 0.29835892 -0.15142605
000190 ae 55 56 3c 0a 56 a3 bd f2 4b 15 3d f7 34 de 3d
       0.013081951 -0.07975395 0.03644938 0.10849946
0001a0 20 51 a6 be 15 d0 82 be e3 df 1e 3e ae 13 ae bc
       -0.32483768 -0.2554938 0.15515094 -0.021249618
0001b0 92 2d 62 3e 81 d6 0d bf c8 b2 81 bd de c0 02 3e
       0.22087696 -0.5540543 -0.06332928 0.12768885
0001c0 0f b9 41 be 59 2d 74 3f 65 16 33 3f 59 a3 2e 3f
       -0.1891825 0.95381695 0.69956046 0.68218
0001d0 f4 bc 95 be 34 d1 00 3f 27 4d af be e2 21 1b bd
       -0.29245722 0.5031922 -0.3423855 -0.03787411
0001e0 11 81 00 3d ab 93 7f 3e 01 cd b5 be c9 14 5b bf
       0.031373087 0.24958675 -0.35507968 -0.8557859
0001f0 82 a7 a2 3e 14 ff a7 3e e9 c8 cd ba 10 bc ad bd
       0.31768423 0.32811797 -0.0015700135 -0.08483136
000200 91 99 c8 be f8 90 03 3f e6 eb a2 3e 18 bf 88 3f
       -0.39179662 0.5139308 0.318206 1.0683317
000210 c3 8d c2 be d8 d8 d7 3d fb 09 15 bf aa f8 2f be
       -0.3799878 0.105394065 -0.58218354 -0.17184702
000220 18 ce 08 bf a9 15 0b 3f 1f 53 40 3f 25 a6 ce 3f
       -0.53439474 0.54329926 0.7512683 1.6144453
000230 48 95 8b be ab 06 c9 3d f2 3c 4c bf 04 92 28 3e
       -0.2726233 0.09815725 -0.79780495 0.1646195
000240 2e 34 43 bf fa f0 0b 3f ef 82 db 3e cd 9f 82 3f
       -0.76251495 0.54664576 0.42873332 1.0205017
000250 43 30 1d 3c bc b5 1e be 8c 9b 06 bf 65 b6 3c bc
       0.009594026 -0.15499014 -0.52581096 -0.011518096
000260 b9 30 3c 3f d0 d4 25 bf ea 3e e0 be 0c b1 a3 bf
       0.73511845 -0.6477785 -0.43798 -1.2788405
000270 b5 3f 00 3f b3 84 82 bd 9f fe b0 3e e2 f7 bc be
       0.5009721 -0.063729666 0.3456926 -0.3690787
000280 3f 49 2a 3f c6 83 0e bf c6 c4 8b be c4 87 85 bf
       0.66518015 -0.5566982 -0.27298564 -1.0432057
000290 8b 86 e4 3e 62 f5 c6 bd 04 49 c6 3e 72 09 47 be
       0.44633898 -0.09714772 0.38727582 -0.19437197
0002a0 08 dd 1a bf 2c 1a ba 3e 4d 66 e6 3e a0 fc 62 3f
       -0.60493517 0.36348093 0.44999924 0.88666725
0002b0 b4 c7 63 be 41 44 cb 3e c0 c5 3f be f9 4c 6e 3e
       -0.2224415 0.3970051 -0.1872778 0.2327155
0002c0 a4 ed 66 bf 74 ce 19 3f 37 98 05 3f 84 a7 1b 3f
       -0.9020636 0.6008065 0.52185386 0.60802484
0002d0 13 a3 a9 3c 18 d1 c3 3e ea d9 ea be ab dd b4 3d
       0.020707643 0.38245463 -0.4586938 0.08831342
0002e0 1c a6 1e bf 21 ca 1e 3f f0 22 4d 3e ef f0 9c 3f
       -0.6197221 0.62027174 0.20032859 1.2261027
0002f0 3a 2f cb bd 1f ac 81 bd 4e 46 e4 be 64 75 2a 3e
       -0.09921117 -0.063316576 -0.44584888 0.16646343
000300 83 05 0f 3d b9 42 5e bd 50 f3 39 be c4 35 b7 3e
       0.034917366 -0.05426285 -0.18159223 0.35783207
000310 6a 5b 3c be ad 1f 17 be 8b 6a 00 be a7 eb 50 be
       -0.18394247 -0.14758177 -0.12540643 -0.20402394
000320 40 ad ab be 8d fe 43 3e af 8f 41 be 08 74 ab 3e
       -0.33530617 0.19140072 -0.18902467 0.33486962
000330 34 60 0f be df ce 6e be a1 d8 5c bf f3 65 d0 3e
       -0.14001542 -0.23321103 -0.8626805 0.4070278
000340 19 f1 d8 3d 6d 0d fb 3c ce 66 0c be 16 86 46 3e
       0.10592861 0.03064605 -0.13711092 0.19387087
000350 26 8f ab 3e 5c 19 c4 be 93 72 9b be 86 4a 23 3e
       0.3350765 -0.38300598 -0.3036085 0.15946397
000360 cb c8 ca bc f3 15 a4 3e 62 d0 17 bf 3c a1 33 bf
       -0.024753949 0.32047996 -0.5930234 -0.701679
000370 60 94 30 3f 08 59 d5 be b5 5f 02 bf 03 87 a3 3e
       0.689764 -0.41669488 -0.5092729 0.31938943
000380 f2 d3 93 be e2 69 d3 be f4 2d 8a be e8 1e 51 3e
       -0.2887264 -0.4129172 -0.26988184 0.20421946
000390 72 8a a2 3e ae 5f 4a 3d 32 ab cf be 42 a0 73 3d
       0.3174625 0.049407654 -0.405603 0.059479006
0003a0 02 b4 c6 be 78 34 d1 be 66 37 2a bf 90 ce ad 3e
       -0.3880921 -0.40860343 -0.6649078 0.33946657
0003b0 47 cd 15 be 83 da f3 be 6e cc 83 be d9 80 ae 3e
       -0.14629088 -0.4762765 -0.25741905 0.34082678
0003c0 d6 09 9f be 0b d4 3c 3f 7d 91 db 3e 8f 49 55 3f
       -0.31062192 0.7376105 0.42884436 0.83315367
0003d0 ad 4a a3 be 7e 1a 45 be 1a 1c 64 be 20 0d cf 3e
       -0.3189291 -0.19248387 -0.22276345 0.404397
0003e0 7f 92 08 3f 12 68 f0 bd e7 c5 63 be d4 e2 58 bf
       0.53348535 -0.117386 -0.22243463 -0.8472111
0003f0 d0 ac e5 3e c5 77 e7 3d 23 e2 6e be d8 1f 99 3e
       0.44858408 0.11302141 -0.23328452 0.29907107

model.lstm.weight_hh_l1 f4 [32, 8]
000000 5d 18 1d 3d 61 42 8f bd 87 83 32 be ce 52 cd 3b
       0.038353313 -0.06995083 -0.17432986 0.0062659746
000010 71 7b f6 3e 61 3d 17 bd 75 1a c2 3e 36 de d2 be
       0.48141053 -0.03692377 0.3791081 -0.41185158
000020 f5 2d eb bd c5 0e b3 3e b3 d8 e2 bd 8e d5 ac 3e
       -0.11483375 0.34972206 -0.11076488 0.3375668
000030 55 18 63 3d 72 bc 47 3e 26 71 4e 3f e2 11 05 bf
       0.055443127 0.1950548 0.806414 -0.5198041
000040 a8 22 bf bd d8 04 8a be 44 e8 11 3d 19 4f e9 3e
       -0.09332782 -0.2695682 0.035621896 0.4556816
000050 6c 5d be bc 31 cb 35 3c 38 6c a8 3c ef 65 33 be
       -0.023237906 0.011095808 0.020559415 -0.17519353
000060 ab 0b 83 bd 9f c1 65 3e d9 e2 fa bd 54 f4 31 3d
       -0.0639871 0.22437142 -0.12250299 0.0434459
000070 a4 fc a0 be c1 6d 3a bd 90 ac 4f 3e 66 8b 31 be
       -0.3144275 -0.045514826 0.20280671 -0.17338333
000080 10 1a 7c bb 5d 17 0b bd 49 36 1a be 2f 08 db 3d
       -0.0038467683 -0.033957828 -0.1505977 0.1069492
000090 93 09 76 3e 63 63 13 be 33 db de bd 14 5d a1 3d
       0.2402709 -0.14393382 -0.10881653 0.07879081
0000a0 dc 38 f5 3d 1d 6b 2f 3f 25 83 46 3e 21 bf 11 be
       0.11973736 0.68522817 0.19385965 -0.14233066
0000b0 b0 6e cf be 73 5b 78 bd c0 b9 38 3f 7d a0 70 be
       -0.40514135 -0.060634088 0.7215843 -0.23498721
0000c0 58 24 2f 3e 4d 30 aa bc 76 fa 4a be 07 33 3a 3e
       0.17103708 -0.020774985 -0.19822106 0.18183528
0000d0 b1 70 35 be e2 a4 a9 bd 21 5f 6e be c9 68 a6 be
       -0.1771877 -0.08283402 -0.23278476 -0.3250182
0000e0 9a 44 dc 3e cc e4 8d 3e 99 cc 8d 3b f1 97 62 3d
       0.4302109 0.2771362 0.0043273685 0.055320684
0000f0 75 02 cc be a9 cb 62 bc de e9 0d 3f 1a 77 f9 3d
       -0.39845625 -0.013842502 0.5543498 0.1218092
000100 7c 2c 2c be a1 80 33 be 10 95 23 be 84 d3 4b 3e
       -0.16813844 -0.17529537 -0.15974832 0.19904906
000110 39 8c 1a bd bf 3e 18 bf e5 a1 43 be f8 9c 0c bd
       -0.037731383 -0.5947074 -0.19104727 -0.034329385
000120 25 7f af bc 1c d7 a1 3d 44 7a a3 bd b5 3a ae be
       -0.021422932 0.07902357 -0.07982305 -0.34029165
000130 38 ce 29 bd af 11 e0 be 6e c5 14 bd 03 5d f6 3d
       -0.04145643 -0.43763492 -0.036321096 0.12029459
000140 01 a2 92 be 81 33 75 be fc 79 8a be 9c 16 67 be
       -0.28639224 -0.23945428 -0.27046192 -0.22567219
000150 62 37 db 3d 57 7a 9b be 23 69 7b be 4f 7d 00 be
       0.10703923 -0.30366775 -0.24551825 -0.12547801
000160 b5 db de be d9 51 85 be e7 73 0b be e9 c8 88 be
       -0.43526998 -0.26039007 -0.13618432 -0.26715782
000170 00 68 12 bb 4b 20 12 bd 8e bf ae 3e 1c 11 8e bc
       -0.002233982 -0.03567533 0.3413052 -0.017342143
000180 5b 19 9d 3c 7c f0 66 3d cf 42 de bd 67 56 b2 be
       0.01917713 0.056381688 -0.108525865 -0.34831545
000190 68 8f f9 be b0 86 8c 3b be 10 26 3e 6f e6 76 3e
       -0.48742223 0.004288517 0.16217324 0.24111341
0001a0 22 57 aa be 57 26 03 be a4 14 25 3e b2 79 da 3d
       -0.33269602 -0.12807594 0.16121155 0.10667743
0001b0 71 12 32 be 6b 4b b7 be a6 62 4b be ab 3e f7 bc
       -0.17389847 -0.35799727 -0.1986185 -0.03018125
0001c0 b5 d0 43 bd 66 e9 b3 3e 3f c1 89 3e c2 90 9f be
       -0.04780646 0.35139006 0.26905248 -0.3116513
0001d0 67 6d 71 bd 5c 8c a2 3e 80 64 81 be da 63 eb 3e
       -0.058942225 0.3174771 -0.25271988 0.45974618
0001e0 81 e3 da 3e b3 6a 27 3e 94 bb 09 be 01 1a 54 bd
       0.42751697 0.16349296 -0.13450462 -0.05178261
0001f0 14 3b 20 be e0 29 f5 bd 3c e6 00 3f 91 e7 6a 3e
       -0.15647537 -0.11970878 0.5035131 0.22939898
000200 78 2a 43 be 86 1e 17 be 9c 75 8a be 14 f5 f6 bd
       -0.1905917 -0.14757738 -0.27042854 -0.12058464
000210 55 ff 06 3f 44 de d7 3d ed 9a 92 be 39 99 d9 bd
       0.52733356 0.10540441 -0.28633824 -0.10624928
000220 67 50 1d bd e1 ac 1c bf e8 c0 cd 3c e3 bb e1 3e
       -0.038406756 -0.6120129 0.025116399 0.4408866
000230 12 57 5b be d2 fb 8f 3d 2f 67 e0 bd 14 4f 08 be
       -0.21419933 0.07030453 -0.10957181 -0.13311416
000240 9a 68 88 3e f9 cb ce be aa 23 a9 be 60 53 d4 3e
       0.26642305 -0.40389994 -0.33035022 0.4146986
000250 e4 04 28 be 97 c1 cc 3e 78 4b b8 3e cc de 64 3d
       -0.16408116 0.39991447 0.35995078 0.05587654
000260 df 66 32 bd 30 cb 39 be 2f 3e 8f be 3f 51 a7 be
       -0.043555137 -0.18143916 -0.2797713 -0.32679173
000270 86 be eb 3d 7a 89 a1 bd ff f2 4e bc f1 99 1d 3e
       0.11510949 -0.0788755 -0.012631177 0.15390755
000280 f1 e1 90 bc d5 7b a5 3e 4a 71 df 3d 78 a6 c9 be
       -0.017685862 0.3232104 0.1091028 -0.39384818
000290 71 9f 34 be cd 66 52 3c 3f a1 18 be 0e f4 6f 3e
       -0.17638947 0.012841892 -0.1490526 0.23432943
0002a0 c7 19 d9 be be bc c0 be a3 bd 02 bf 32 52 79 3e
       -0.4240248 -0.37644 -0.5107061 0.24347761
0002b0 14 b1 e9 3b 49 8f e5 be 80 3c 59 3c 68 f3 cb 3c
       0.007131705 -0.4483588 0.013259053 0.024896339
0002c0 39 90 b4 be f8 da 29 be 3b 51 93 be 9d 2f 29 3e
       -0.35266283 -0.16587436 -0.2877291 0.1652207
0002d0 e6 5c 43 3e 2a 44 7e bd d9 63 ff bd b1 35 92 bc
       0.19078407 -0.062076725 -0.12470216 -0.017847868
0002e0 08 b7 07 3e ab b1 58 be 8a 6e 3c be 88 2a 5e 3e
       0.13253415 -0.21161525 -0.18401542 0.21695912
0002f0 12 8b c5 3d f0 a3 8d 3e 05 f5 6e be c4 d9 f1 be
       0.09645666 0.27664137 -0.23335655 -0.47236454
000300 66 61 01 bf a1 67 9e 3d b2 ca cb be 9f 9a 32 3f
       -0.50539243 0.077346094 -0.39803082 0.69767183
000310 23 ab cc 3c fa 9b 61 be 12 51 b0 3e 71 bc 22 bf
       0.024983948 -0.22032157 0.34436852 -0.6356879
000320 5c 27 75 be cf 11 07 be ef 85 10 be 19 fd 63 3e
       -0.23940796 -0.13190387 -0.14113592 0.22264518
000330 cd 71 3e 3d c3 22 16 3f fc 27 c9 3e b8 a9 b5 be
       0.046495248 0.5864679 0.39288318 -0.35481048
000340 95 48 19 bf 03 01 b8 be 6d 81 1e be 31 1f bd 3e
       -0.59876376 -0.35938272 -0.1547906 0.3693786
000350 51 f7 09 bc da e9 ae be 13 aa 96 bd e7 4b c7 3d
       -0.008420781 -0.3416279 -0.07356658 0.09731274
000360 41 66 df bd d7 48 5c be 7e 21 9d be 95 f8 f8 bd
       -0.10908175 -0.21512161 -0.30689615 -0.12156788
000370 d8 79 56 3d ba ba b6 3e a1 10 3d 3f d7 9a 06 be
       0.052362293 0.35689336 0.738535 -0.13145004
000380 a4 5f 17 3b 71 4e 0d be 6a 5b c1 be 58 53 56 3e
       0.0023097778 -0.13799454 -0.37765056 0.2093023
000390 51 55 c4 3d 75 c7 05 3e ef bf 13 3d 34 69 9a be
       0.09586585 0.13064368 0.036071714 -0.3015839
0003a0 45 0a 57 be 47 a9 b9 3e 2d d1 1b be 98 ba 84 3e
       -0.21000011 0.3626196 -0.15216513 0.2592361
0003b0 f2 22 b7 3c 47 fc ab be 25 e6 70 3e 2c 2d af be
       0.02235553 -0.3359091 0.23525293 -0.3421415
0003c0 a6 84 27 3e c4 42 b8 3e 5b 70 0b be a0 34 a3 bd
       0.16359195 0.35988438 -0.13617079 -0.07969022
0003d0 52 37 3f 3d 08 8c 12 be a9 f0 c7 3e 70 92 68 be
       0.046683617 -0.1431123 0.39050797 -0.22712111
0003e0 76 4b e0 3d 1d 98 a3 bc 99 da 3c 3e b9 23 a5 3e
       0.10951893 -0.019969994 0.18442763 0.32253817
0003f0 58 b6 88 be 7f 7b 3a bd 1f 8b 36 3f 55 d7 8a be
       -0.26701617 -0.04552793 0.7130603 -0.2711741

model.lstm.bias_ih_l1 f4 [32]
000000 6d 29 98 3e e6 78 4f 3e 51 78 17 bd 50 ad fa 3e
       0.29719105 0.20260963 -0.036979977 0.48960352
000010 2b d1 2c 3f 08 3a b5 3e b5 43 14 be bf cb c4 3e
       0.67506665 0.35395837 -0.14478953 0.38436696
000020 83 9d fd be 68 5e 4e bf db 5e 07 bf ac 38 cd be
       -0.49534234 -0.806128 -0.5287911 -0.400823
000030 58 1c c1 bc 2e 45 7b bc 32 c5 49 3e 82 21 1a be
       -0.023573086 -0.015336318 0.1970413 -0.15051845
000040 c7 90 76 3e 57 27 08 be 32 f6 36 3d 8f e6 03 be
       0.24078666 -0.13296257 0.044668384 -0.1288092
000050 8d db 55 3e a3 9a c2 3d 95 50 4e 3e ae 63 8c bc
       0.20884533 0.09502151 0.20147927 -0.017137375
000060 3a d6 09 3f 7d ea 3c 3f 3e 0e 83 3e a5 96 53 3e
       0.5384251 0.737953 0.25596803 0.20662935
000070 a4 fa f7 3d c2 c1 0c 3f e3 99 f2 3d ad c6 16 3f
       0.12108353 0.5498315 0.11845758 0.58896905

model.lstm.bias_hh_l1 f4 [32]
000000 4b 48 e1 3e b9 f5 60 3e 82 11 f2 3e e0 b3 3a 3e
       0.44000468 0.21968736 0.47278982 0.1823268
000010 4f c3 e0 3d 10 dc 0c 3f 40 ac d2 b9 f5 a6 a0 3e
       0.10974752 0.5502329 -0.00040182658 0.31377378
000020 98 5d 74 be 2e 88 36 bf 59 06 92 bd 1a d9 6e be
       -0.23863828 -0.71301544 -0.07130117 -0.23325005
000030 41 99 3e 3e 13 48 0f be 02 eb cd be c9 1f 66 bd
       0.18613149 -0.13992338 -0.4021836 -0.056182656
000040 dc c1 37 be 35 18 05 3e b4 54 79 bd 9a 27 0f 3e
       -0.17945045 0.12997515 -0.060871795 0.1397995
000050 fb 53 40 be 71 78 2b bd d2 87 0b be cb 44 91 3c
       -0.18782036 -0.04186291 -0.1362603 0.017732998
000060 0a d1 d5 3e f3 89 ac 3e df a3 eb 3d 0d 5d 59 bc
       0.41761047 0.33698997 0.11505865 -0.013266814
000070 c3 d0 15 3f 2c 93 d3 3d 80 b4 a4 3e 18 a2 21 3d
       0.5852167 0.10330805 0.3216896 0.039461225

model.lstm.weight_ih_l2 f4 [32, 8]
000000 ec 36 14 bf 02 e0 49 3e b5 cf a6 be 56 0b 87 3e
       -0.57896304 0.19714358 -0.32580343 0.26375836
000010 f1 18 d1 3e e9 12 bb be e3 a5 8c 3e 2e b2 83 bd
       0.4083934 -0.36537865 0.27470312 -0.064304695
000020 19 04 a0 bb e2 d5 d1 3d c3 2e c5 bd c9 08 39 be
       -0.004883301 0.10245873 -0.0962806 -0.18069758
000030 b0 34 d7 3d ce 7c ed 3c f5 eb 53 be 55 38 8c 3d
       0.10508096 0.028990176 -0.20695479 0.06846682
000040 c0 31 87 3e aa 24 78 3e f3 b0 52 bd 0b b8 55 3e
       0.26405144 0.24232736 -0.051438283 0.20870988
000050 cc 74 ad 3e 48 d0 31 bd 8d 53 38 be 3e a6 32 be
       0.3387817 -0.043411523 -0.18000622 -0.17446229
000060 71 15 11 bf a9 8d 7c be 7a 6d 9d be 6a 17 cc 3c
       -0.5667334 -0.24663414 -0.30747586 0.024913508
000070 6c 01 fd 3e 92 95 4e be d3 64 18 bf 19 37 24 bf
       0.49415147 -0.20174244 -0.59528846 -0.6414657
000080 89 79 9d be 0f 25 16 be fe 25 c8 be df 4d 5f bd
       -0.30756786 -0.14662574 -0.39091486 -0.054517623
000090 71 5b d4 3e ce fd 1a bf 3d 6a 5a be ac ad 4e bd
       0.41476014 -0.60543525 -0.21329589 -0.050458595
0000a0 a0 05 b2 3d a6 0c 48 be a4 8a 07 bd 8c 20 79 3d
       0.08692479 -0.19536075 -0.033091202 0.060822055
0000b0 0a e1 97 3e c0 fd a2 be 23 2e cb 3e 58 86 ef be
       0.2966388 -0.3183422 0.39683637 -0.46782184
0000c0 82 97 82 be 52 6f 19 3f 25 51 ba be 33 59 00 3e
       -0.25506216 0.59935486 -0.36390033 0.12534027
0000d0 1c aa 3b 3e a2 98 b8 bd 6d 69 d1 3e 49 34 b6 be
       0.1832661 -0.090134874 0.40900746 -0.35586765
0000e0 68 c9 80 bd a6 ab d4 bd c7 14 10 3d c3 d9 b0 3e
       -0.06288415 -0.10384302 0.035176065 0.3454114
0000f0 a2 75 0a be 4f c1 dd be be ba b1 be 12 69 a1 be
       -0.13521436 -0.43311545 -0.34712785 -0.31525475
000100 26 5f 85 be be cc 67 be 5e 49 8d be 22 81 65 be
       -0.26049155 -0.22636697 -0.27595037 -0.22412542
000110 4b b2 eb bc f0 a8 74 be d0 ba bf be 60 eb 93 be
       -0.02877154 -0.2389257 -0.37447214 -0.28890514
000120 b2 6a 07 bf d5 b7 a3 3e e8 11 3a 3e 25 e7 89 be
       -0.5289718 0.3197619 0.18170893 -0.26934162
000130 76 98 54 3e d9 b1 31 be 9d a2 0e be 84 46 94 3e
       0.20761284 -0.17353 -0.1392922 0.2896005
000140 26 87 ef be 44 09 48 be a0 f2 8b 3d f6 3c 83 be
       -0.46782798 -0.19534785 0.068333864 -0.25632447
000150 3b 54 ee 3e 16 c9 32 be 8c e0 8b 3c 94 28 0a be
       0.46548638 -0.1745952 0.017074846 -0.13492042
000160 a6 cc 02 bf 0c d0 46 bf 36 12 24 bf 79 df 5a bc
       -0.5109352 -0.77661204 -0.6409029 -0.013358944
000170 dc 15 e7 3e ca bf ed be 8a 27 35 bf 73 9e c4 3b
       0.45133865 -0.46435386 -0.70763457 0.006000334
000180 d1 dd 1f bf 20 fb de be 94 1f 00 be 67 ec b9 3e
       -0.6244784 -0.43550968 -0.12512046 0.36313173
000190 17 ea 19 3d 34 82 9f be b6 75 29 be 8c b5 57 3e
       0.03757676 -0.31154025 -0.1654881 0.21065348
0001a0 14 b0 0c bf 0d 05 d6 be c1 49 43 be 3c 53 28 be
       -0.54956174 -0.41800728 -0.19071104 -0.16438001
0001b0 64 c1 d8 3d 58 98 1d bf ac 60 27 3c 99 da 1a bd
       0.10583761 -0.61560583 0.010215919 -0.037806127
0001c0 c1 10 17 bf 1f 8c df 3e 46 64 17 3e cb d0 69 be
       -0.5900994 0.4366159 0.14784345 -0.22833554
0001d0 67 68 92 3d 7b ff e6 3d fb 31 a9 be 43 33 3f 3e
       0.071488194 0.11279198 -0.33045945 0.18671899
0001e0 21 0b e2 bd 69 d7 6f be 6b 28 d8 bd 6a ff 2d be
       -0.11037279 -0.23422016 -0.10554584 -0.16991964
0001f0 c7 48 f9 bd 19 3b b5 bd 6a 04 a6 bd 76 e6 2e bd
       -0.12172084 -0.088491626 -0.08106311 -0.042700253
000200 92 98 8f 3e 9d 54 31 3f 70 cd a9 3e 09 ba 44 be
       0.2804609 0.69269735 0.3316455 -0.19211592
000210 3a 15 34 bf 99 e1 b0 3e fd d6 dd 3e 31 a9 91 3e
       -0.7034489 0.34547117 0.43328086 0.28449395
000220 a4 4e 8c be 7d 4a 27 bf b3 36 cd bd a8 3d 78 3e
       -0.27403748 -0.65348035 -0.10020199 0.2424227
000230 7e 85 38 3f df 49 76 be 58 4b d4 be d8 15 13 bf
       0.7207869 -0.24051617 -0.41463733 -0.57455206
000240 3f 9d 85 be b3 d2 56 bf a5 c6 2d bf 43 c6 2b 3f
       -0.26096532 -0.8391525 -0.6788123 0.670994
000250 94 08 26 3f 38 dd 28 bf 12 71 99 be 79 c7 ae be
       0.6485684 -0.65962553 -0.29969078 -0.3413656
000260 59 01 23 be 75 4a de be 5f cf 92 be 78 63 49 3f
       -0.15918483 -0.4341618 -0.28673837 0.786674
000270 f3 7f c2 3e 38 ca 17 bf 21 09 7e be e6 16 40 bf
       0.37988243 -0.59292936 -0.2480817 -0.7503494
000280 64 20 00 bf 92 1b 16 bf a5 67 34 be 71 00 11 3f
       -0.50049424 -0.5863582 -0.17617662 0.566413
000290 16 5b 02 3f a8 64 46 be 5e 2b 13 be 45 19 d2 be
       0.50920236 -0.19374335 -0.14372012 -0.41034904
0002a0 7c 51 af 3e d5 24 ae 3e 4e ea 15 3f 2a 08 ff bd
       0.34241855 0.34012476 0.58560646 -0.12452729
0002b0 6b 9b 08 bf 7b 17 1b 3f af 14 5a 3e 4e 27 14 3f
       -0.5336215 0.60582703 0.21296953 0.57872474
0002c0 c6 0a 22 bf e3 97 be be bc 6c 8c be d9 9b da 3e
       -0.6329769 -0.37225255 -0.27426708 0.42697027
0002d0 67 23 f1 3e 01 27 09 bf de 17 08 bf d5 6b d1 be
       0.47097322 -0.5357514 -0.5316142 -0.40902582
0002e0 6f 2d 1f 3f 61 4b 43 3f 27 5a f8 3e 59 0d 3f bf
       0.621787 0.76286894 0.4850628 -0.7462974
0002f0 7d d1 c5 be 7b 18 e0 3e 3e 90 8b 3e db 56 59 3f
       -0.3863639 0.43768677 0.27258486 0.84898156
000300 cb c2 23 be c4 f3 bd be 20 71 3b be 22 8e 87 3e
       -0.15992276 -0.3710004 -0.18304873 0.26475626
000310 d7 58 20 3e 9e 41 9c bd cd 86 c3 3d 41 88 29 be
       0.1565889 -0.07629703 0.095471956 -0.16555883
000320 e2 bf c3 be fb 0a 84 3e ad e1 41 3e bf c5 27 3e
       -0.38232332 0.25789627 0.18933745 0.16384028
000330 25 aa 05 bd 67 a4 7e be c8 8c 17 3e 8b bf a2 be
       -0.032632966 -0.24867402 0.14799798 -0.3178676
000340 3b 77 4d be a4 3e 7f be 6d 86 d1 3c dc 6a 99 3e
       -0.20065014 -0.24926239 0.025576795 0.2996434
000350 10 23 2b 3f 74 a1 96 bd 12 98 9c be 35 87 8f be
       0.66850376 -0.073550135 -0.3058477 -0.28032842
000360 64 d3 0f be 36 ad ff be 95 63 0b bf d5 e3 c0 3e
       -0.14045483 -0.49936837 -0.54448825 0.37673822
000370 c7 c7 2d 3f 93 d2 52 bf ee bb 24 bf 63 89 29 bf
       0.6788296 -0.8235256 -0.6434926 -0.6622526
000380 ed 90 2f bf 94 b6 41 be c7 91 80 be e3 3d c8 3d
       -0.68580514 -0.18917304 -0.2511122 0.09777429
000390 56 34 43 3e 82 4c 33 bf 43 9e 7f 3c 17 a1 36 be
       0.19062933 -0.70038617 0.015601697 -0.17834888
0003a0 26 dc 8b 3d c0 cd 08 be b2 4b fd 3d 9d 47 92 3e
       0.06829099 -0.13359737 0.12367953 0.28570262
0003b0 9b 20 09 3e 78 a5 80 be b7 98 26 3e 90 a6 ef be
       0.13391344 -0.25126243 0.16269194 -0.46806765
0003c0 18 2c 7b be af 39 aa 3d bf 97 77 be bf 08 2e 3e
       -0.24528539 0.083117835 -0.2417898 0.16995524
0003d0 4f 72 90 3c e5 9d 7e be af 55 41 3d 89 08 03 3e
       0.017632632 -0.2486492 0.047200855 0.12796225
0003e0 1d 08 63 3e 48 09 20 be 71 f8 cf 3c b1 00 09 3e
       0.22171064 -0.1562854 0.02538702 0.1337917
0003f0 c6 c2 d5 3d 8d 67 a6 be 3b 2c 14 be 88 33 09 bd
       0.10437541 -0.32500878 -0.14469998 -0.03349641

model.lstm.weight_hh_l2 f4 [32, 8]
000000 57 a4 c4 3e 7b 49 58 3d 2e 87 30 bd a9 90 95 be
       0.3840663 0.05280445 -0.043097667 -0.2921193
000010 48 d9 1a be e5 d5 33 3e 59 fa 7c be 49 25 73 3d
       -0.15121949 0.17562063 -0.24704875 0.05936173
000020 53 07 35 3e 19 7f 33 3d 79 56 f3 3c 2f c0 91 3e
       0.17678575 0.04382238 0.02970432 0.28466937
000030 02 bd 8d 3e 19 e0 ae 3d 0c 60 59 3e e5 1e db bd
       0.27683264 0.08538837 0.21228045 -0.10699252
000040 11 74 8e 3e bf 36 b2 bd a8 e7 c4 3e fd ef 94 bc
       0.27822927 -0.08701848 0.3845799 -0.018180842
000050 19 64 93 3e 9a 9c 54 be 85 f1 fb be 10 b3 88 3e
       0.28787306 -0.20762864 -0.49207702 0.26699114
000060 5b 24 59 3e 76 3d 1e 3e 6a 01 dc 3d e4 f7 ff bd
       0.21205275 0.15453133 0.10742457 -0.12498453
000070 ac c7 b0 be 24 12 8a 3e d3 58 b0 bc 08 2e 9d bd
       -0.34527338 0.26966965 -0.02152673 -0.076747954
000080 f2 ca 64 bc e5 49 05 bf 6b d3 9c be 35 77 bd be
       -0.013964402 -0.5206588 -0.3063005 -0.3700501
000090 57 de 85 3e 48 ce 33 3e e4 89 4e be d4 3b 97 3d
       0.26146194 0.17559159 -0.20169789 0.07384458
0000a0 63 22 49 3c 0f f4 22 3c e2 57 d3 3c 60 e9 ef 3e
       0.012276265 0.009945883 0.025798742 0.46857738
0000b0 a6 50 4e 3d bc 66 d0 3b 67 e0 1c bf 8f 44 87 be
       0.05036988 0.006359903 -0.6127991 -0.26419494
0000c0 4b 02 fb bd 13 41 41 be a1 aa 20 3d b0 70 2c 3e
       -0.12256297 -0.1887248 0.039225224 0.16839862
0000d0 e1 31 39 3d 4f 70 96 be cc a6 a4 be 02 f0 6d 3e
       0.045213584 -0.2938256 -0.32158506 0.23236087
0000e0 dc 5d f0 3d 82 67 9c be d2 7c d8 3c 04 62 d2 3e
       0.11736652 -0.3054772 0.026426706 0.41090405
0000f0 29 4f a1 bd cd 01 56 3e bd 2a a3 be 6f cd 9a bd
       -0.07876427 0.20899124 -0.31868544 -0.075587146
000100 70 ad c5 3e b0 69 a0 3d ec a0 32 3d f2 bc e3 3c
       0.38608885 0.07832658 0.0436105 0.027800057
000110 81 fb 15 3e e7 b3 fb 3b f8 97 41 be 5e 42 cd 3e
       0.14646722 0.007681358 -0.18905628 0.40089697
000120 fe 56 84 be 5d e1 75 3e 39 a4 8e be 0f cd 85 be
       -0.2584762 0.2401175 -0.27859667 -0.2613301
000130 5b dd a8 3e 79 41 17 bd 3b 3a 07 3e 45 8f 98 3d
       0.3298138 -0.036927674 0.13205807 0.074492015
000140 e3 7f 8c bd 94 f7 8d be ae 08 95 3d 4f 9a 74 3e
       -0.0686033 -0.2772795 0.07277046 0.23886989
000150 18 55 84 be d6 25 77 3d 62 01 15 3e c6 da c2 3e
       -0.2584617 0.060338818 0.14551309 0.38057536
000160 85 65 c1 3d eb 78 b7 be 2f 36 f5 3d ac 67 26 3e
       0.094431914 -0.3583444 0.11973225 0.16250485
000170 ad 29 7b be cb 1f ad 3c f2 62 cb bd 83 c0 b6 3e
       -0.24527617 0.021133324 -0.09930982 0.3569375
000180 4e 2e 65 3e 5e 61 74 3d be 3e 8b be f6 10 9d be
       0.22380945 0.05966317 -0.27196306 -0.30677003
000190 f7 c8 38 3e 87 03 2c 3e ed cd 90 3e f0 a9 92 3e
       0.18045412 0.1679822 0.2828211 0.28645277
0001a0 bb 38 3f be 48 69 d8 bd be 60 82 be f5 63 0d 3e
       -0.18673985 -0.10566956 -0.25464433 0.13807662
0001b0 f3 b8 09 3f ac b8 9b be f2 61 2a 3d b3 7c f8 3d
       0.53797835 -0.3041433 0.041597314 0.121331595
0001c0 ff e4 77 3e 33 4f 14 3e 18 35 7d 3c d0 be a3 3e
       0.24208449 0.14483337 0.015454553 0.31981516
0001d0 f3 95 c4 3e 32 7e ab be 86 7a 27 be f8 de d5 bd
       0.38395652 -0.33494717 -0.16355333 -0.104429185
0001e0 f0 93 aa 3e 5e 7d b2 be 2c 71 ad be 2f fc b5 bd
       0.33315992 -0.34861273 -0.33875406 -0.08885991
0001f0 af 5f a4 bd 82 3d c3 3d 4d f0 85 3e a4 4e e9 3e
       -0.08026063 0.09533216 0.26159897 0.4556781
000200 e9 5d 3e be bc d3 ac 3d 0c 57 ac bd 82 02 f7 bd
       -0.18590511 0.084388226 -0.084150404 -0.12061025
000210 e4 bd b0 bd 73 49 e8 3d 9a 6d 99 bd f0 e6 d2 3d
       -0.08629969 0.11342134 -0.07491608 0.10297954
000220 c7 86 cd 3e 64 6a 25 bf 79 a6 e3 3d 47 b4 e6 bd
       0.4014189 -0.64615464 0.111157365 -0.11264854
000230 cf 20 70 be 73 cf c9 3d ae 97 94 bd ee f5 39 be
       -0.23450015 0.09854021 -0.07255493 -0.18160221
000240 15 5c 08 3e 1a d0 12 bc 48 71 9c be fa 87 2a 3e
       0.13316377 -0.008960748 -0.30555177 0.16653433
000250 27 e3 76 be e0 34 9a 3e 3e cb ad 3c 72 55 29 3f
       -0.24110089 0.30118465 0.021215077 0.66146004
000260 b1 e0 6e 3e 98 7f b9 be 99 5a eb 3d 45 15 9e 3d
       0.233279 -0.3623016 0.114918895 0.077189006
000270 8a 2d ef be 0e 88 c3 be 4e d8 b2 3e bf 46 8a 3e
       -0.4671443 -0.3818974 0.34930652 0.270071
000280 01 1b d1 3e 02 11 18 be bf 4a a8 be a7 a5 59 3e
       0.40840915 -0.14850238 -0.32869527 0.21254598
000290 56 d8 5f be 05 79 78 3d d2 24 9e bc 13 ef c8 3d
       -0.2185987 0.06066229 -0.019304667 0.09811225
0002a0 ac 4b f9 3c d5 1c e3 3e 46 9b 0a 3e 58 3d 7d 3e
       0.030431591 0.44357935 0.13535795 0.24730432
0002b0 77 28 10 3e 9c b3 06 bf 8b b4 f5 3e 56 3e 05 be
       0.14077936 -0.5261781 0.47989306 -0.1301206
0002c0 32 38 6d 3e 22 11 b9 bd 95 4d eb 3d e9 4f b6 be
       0.23165968 -0.09036471 0.11489407 -0.35607842
0002d0 96 7c b3 3c b5 74 78 3d e1 1d 1f bf 3e a9 b4 3e
       0.021909993 0.060658175 -0.62154967 0.35285372
0002e0 69 81 cf be 41 a7 87 3d 75 0e 9d 3e 35 38 ae 3c
       -0.4052842 0.06623698 0.30675092 0.021267036
0002f0 0a f2 1c 3e 36 45 a1 3e ea d6 3f 3d f5 a1 4a be
       0.15326706 0.31498116 0.046835817 -0.19788344
000300 ec e7 a0 3e 53 89 09 be 5c 08 6c bc ec af 7a be
       0.31426942 -0.13431291 -0.01440629 -0.24481171
000310 ab 8f f9 3d aa d6 1f be cf 20 c1 3e c0 b5 1b 3e
       0.121856056 -0.15609232 0.37720343 0.15206051
000320 c4 b8 81 be fb 9f b8 bd a9 68 56 3e 3c b1 07 3e
       -0.25336277 -0.09014889 0.20938362 0.13251203
000330 dc 07 a8 3e 7f a7 a2 3c 92 82 a4 bd b5 fa 92 3e
       0.32818496 0.019855259 -0.08032717 0.287069
000340 78 50 aa 3c 5b 19 27 3c 53 29 89 3d 0d 5f 72 3e
       0.020790324 0.010198916 0.06697335 0.23669071
000350 32 e0 c6 3e c8 44 4b be 10 4d 40 bd 9a 85 fc bc
       0.38842922 -0.19850457 -0.046948493 -0.030825425
000360 a2 fa 22 3d 99 0f c5 be b3 62 95 be ab 64 ff 3c
       0.039789803 -0.38488463 -0.29176864 0.031175932
000370 5b af 4d 3e 49 ce 57 be e8 e2 a3 3e 24 6b a4 3a
       0.20086424 -0.21074785 0.32009053 0.0012544137
000380 7c 60 9e 3e f1 e6 25 be 3c fd 59 be 11 82 d4 3d
       0.30932987 -0.16201378 -0.21288007 0.10376371
000390 c9 99 75 3e f9 68 a5 be d3 fa 84 bd 00 38 32 3e
       0.23984446 -0.3230665 -0.064931534 0.17404175
0003a0 ca e5 38 bd 1f 20 b8 3e 12 da a8 bd 06 86 14 3f
       -0.04514102 0.35962006 -0.082447186 0.58017004
0003b0 8e 68 f1 3e d8 8f dd be a7 4f 71 be 38 14 b0 3c
       0.4715008 -0.43273807 -0.23565541 0.021494016
0003c0 48 e4 fd be 6f 39 cf 3e dd 11 ae 3d 68 5a e3 3e
       -0.49588227 0.40473506 0.08499501 0.44404912
0003d0 35 e3 c5 3e 39 b5 54 be 5f 44 b8 be b9 5c 9d bd
       0.38649908 -0.20772256 -0.35989663 -0.07683701
0003e0 01 67 94 be e2 60 f2 bd 1c 0b 59 3e 86 6a 9a 3d
       -0.28984836 -0.11834885 0.21195644 0.07539849
0003f0 de 69 e8 3e c1 43 f6 be 70 ea 9d be 30 a5 8e 3e
       0.4539327 -0.48098567 -0.30842924 0.27860403

model.lstm.bias_ih_l2 f4 [32]
000000 64 9d 64 be 3f 0f ea 3e 3e 34 04 3e 03 7d d7 bd
       -0.22325665 0.45714757 0.12910554 -0.10521891
000010 a7 3e 94 3e ab cd 74 3e 30 12 ba bd 44 e1 de 3d
       0.2895405 0.23906581 -0.090855 0.1088281
000020 ce 9c 0b be ed d8 88 bb 85 29 60 3e 98 43 35 be
       -0.13634035 -0.00417625 0.21890838 -0.17701566
000030 0f 01 1f be 58 f3 24 3e 2c 33 fe be 09 ab 40 be
       -0.15527748 0.16108453 -0.49648416 -0.18815245
000040 2d a7 aa bd 40 72 ca 3c d0 7b 6d 3e d3 c9 e8 3d
       -0.083326675 0.024712682 0.23191762 0.1136662
000050 8a c0 3d be 13 3f 61 3e 43 06 94 3e 42 c8 32 3c
       -0.18530479 0.21996717 0.28911027 0.010912003
000060 40 1c 1b 3e e6 ab 32 be 20 49 ba 3e 5d b6 fa bd
       0.15147495 -0.17448387 0.36383915 -0.12241814
000070 65 57 9b 3e 96 82 0d 3f f6 22 d1 bc 2f b0 a4 3d
       0.30340114 0.55277383 -0.025529366 0.08041417

model.lstm.bias_hh_l2 f4 [32]
000000 d1 60 a2 be af ac 23 be 24 12 f6 bd f5 56 04 3e
       -0.3171449 -0.15983842 -0.12015179 0.12923796
000010 43 58 3f 3e b2 04 5d 3d e0 50 e1 3e 78 ad 14 3e
       0.18686013 0.053959556 0.44007015 0.14519298
000020 52 40 10 be cf 9c 51 3d 67 c9 47 3e e0 75 a8 be
       -0.14087036 0.051174935 0.19510423 -0.3290243
000030 78 96 8b bd 0f 51 8c be 37 ca 27 bf 55 ea 68 be
       -0.06815809 -0.27405593 -0.6554293 -0.2274564
000040 1a ba 10 3c 31 e0 46 3d 83 c5 93 bd e2 71 a0 3c
       0.008833433 0.04855365 -0.07215407 0.019585554
000050 54 19 6b 3e 80 83 8a be 5d 7a b4 be c7 82 19 be
       0.2295888 -0.27053452 -0.35249606 -0.14991294
000060 4f 0c 55 3e 31 64 f0 3e b1 04 22 bd 07 e2 24 3c
       0.20805477 0.4695144 -0.039555255 0.010063655
000070 c2 fb d0 ba 4d c8 df 3e f8 e7 a0 3e 69 6d 95 3e
       -0.001594417 0.43707505 0.31426978 0.29185036
