lightning_logs/version_1/checkpoints/epoch=0-step=3.ckpt (torch, 49674 bytes, 51 tensors)

model.lstm.weight_ih_l0 f4 [32, 8]
000000 eb 57 73 be 03 cf 2b be ee 1b 76 be f0 89 80 bd
       -0.23764007 -0.16778187 -0.24034092 -0.062763095
000010 18 9b 91 be 7f 22 38 3e 7f 8b 1b be 9d 19 1d be
       -0.2843864 0.17981909 -0.15189932 -0.15341802
000020 74 a8 36 bb 52 df 06 be 18 ec 7b 3e 9f ba 98 3e
       -0.0027871402 -0.13171127 0.24601781 0.2982988
000030 90 45 a7 be eb 1a 15 3e ac 31 84 3b 00 91 27 3e
       -0.3267026 0.1456105 0.0040342417 0.16363907
000040 38 46 d7 bd 40 b6 2a 3a fa 67 a9 3c c1 66 17 3e
       -0.1051144 0.0006512143 0.020679463 0.14785291
000050 72 e4 35 3e b2 92 fd 3d b6 2c 35 3d 5d 5e 85 be
       0.17762926 0.123814955 0.044232093 -0.26048556
000060 b8 38 41 be 42 9f 54 be 4b 6f ac be 91 8b b6 3e
       -0.18869293 -0.20763877 -0.3367866 0.35653356
000070 8a 2b 3c be ed 67 6b be 48 f2 36 be 51 24 60 3e
       -0.18375984 -0.22988863 -0.1786586 0.21888854
000080 2a 90 62 be c9 9a 9a be ac e0 70 be 98 45 d7 3d
       -0.22125307 -0.30196217 -0.23523206 0.10511321
000090 2a fe 0d bd 4c 93 9b be 57 37 84 be 02 17 8e be
       -0.034666218 -0.30385816 -0.2582347 -0.2775193
0000a0 c8 82 ca 3d cf 21 0e 3e 53 6a 1d 3d 63 30 0c be
       0.09888226 0.13880084 0.038431477 -0.13690333
0000b0 61 5e 43 be 93 e9 f0 3d 66 8e ac bd 74 ef a9 bd
       -0.19078971 0.11763301 -0.08425598 -0.08297625
0000c0 a2 63 b8 bd 58 2c b5 3d 97 1e e2 3d f3 d3 9d 3e
       -0.090033785 0.088463485 0.11040991 0.30825767
0000d0 41 17 a5 3e 5e be d7 bd 80 ed 5f 3d 6c 5c 70 be
       0.32244304 -0.105343565 0.054669857 -0.23472756
0000e0 fc 72 95 be 5f c2 88 3e 71 3d 73 3c c6 45 48 be
       -0.2918929 0.26710793 0.014846192 -0.19557866
0000f0 5a 74 33 3e ae bf 05 3e 2c 9c 00 3e 07 66 04 3e
       0.17524853 0.13061401 0.12559575 0.12929545
000100 9d 90 3c 3d 89 44 6b be 7f b3 92 be cf 3b be 3e
       0.04603635 -0.22975363 -0.2865257 0.37155005
000110 13 8c 8a 3e e8 41 88 be 2d 3c 8d 3e de 84 9d be
       0.27059993 -0.26612782 0.27584973 -0.30765432
000120 9c a9 5c 3e 0d a0 68 3e 4b 03 4e 3e e5 76 03 3e
       0.21549076 0.22717305 0.20118444 0.12838323
000130 bd 2d 67 be de 14 29 be a0 9f 96 3d f0 c8 f1 3d
       -0.22576042 -0.16511866 0.07354665 0.11805904
000140 39 e0 ac 3e 8a 79 32 3d fc 42 31 3e 4f 29 75 be
       0.33764818 0.04357294 0.17310709 -0.23941539
000150 b4 75 8b bd 89 ac 4e 3e d8 41 07 3d bb e9 9a 3e
       -0.068095595 0.20183004 0.033021778 0.30256447
000160 9a e8 87 be 02 dd 61 be 13 6d 04 3e 18 88 03 3c
       -0.26544648 -0.22056964 0.12932234 0.008028053
000170 eb 0e a6 be 43 d5 24 3e 6c 34 e2 ba d1 63 e8 3d
       -0.32433257 0.16096978 -0.0017258055 0.113471635
000180 08 dd 96 3d bf c0 82 be d4 f3 58 be 99 9c 8d be
       0.07366377 -0.2553768 -0.21186763 -0.27658537
000190 e2 7d 74 3e d4 25 39 be 47 90 9b 3e 81 67 af bd
       0.23876145 -0.18080837 0.30383512 -0.08564664
0001a0 a2 80 65 3d bb 1e a2 3e 1a 6c 58 be 56 b1 b7 be
       0.056030877 0.3166407 -0.21134987 -0.35877484
0001b0 49 97 48 3d 36 8e 8d be 01 9d 44 3e 61 67 ea 3d
       0.0489724 -0.2764756 0.19200517 0.11445499
0001c0 b4 21 90 3e 3e ed 21 bc be 3a 51 be f1 89 9f be
       0.28150713 -0.009883223 -0.20432565 -0.31159928
0001d0 7c 85 62 be 16 e9 99 3e cd a5 94 bd 48 5d f3 bb
       -0.22121233 0.30060643 -0.072581865 -0.0074268915
0001e0 76 e1 ca bd 0a 92 50 be 3e 77 87 3e 3e d2 ea bd
       -0.099062845 -0.2036821 0.26458162 -0.11465882
0001f0 22 79 30 be 75 1c a4 3e 0a b1 58 3e 4f ba 2f 3e
       -0.17233709 0.3205296 0.21161285 0.17160915
000200 8c 42 8f 3e 58 b8 4a be 55 61 11 3e 20 91 94 bd
       0.2798046 -0.19796884 0.14197285 -0.07254243
000210 e3 ca 20 3d 87 6b 3a 3e 87 30 e3 bd ed 0e be 3e
       0.039255988 0.18205081 -0.1109324 0.37120762
000220 24 ae d8 3c b4 20 6a 3e 9f aa 6c 3d 54 f8 a1 be
       0.026450224 0.22864038 0.057779904 -0.31634772
000230 4e 00 3c be 0e 22 8e be 41 42 55 3d 97 a0 5b be
       -0.18359491 -0.27760357 0.052065138 -0.21447979
000240 fe 75 9c be 42 a1 53 3d 62 a9 aa be 6f fd 5d be
       -0.3055877 0.05166746 -0.33332354 -0.21678708
000250 b7 0b 77 be fc 70 19 3e 31 be 9c 3e f0 0d ca 3d
       -0.24125563 0.14984506 0.30613855 0.098659396
000260 18 23 4c be d5 2c 86 3e 43 b6 b1 3e 04 59 bf bd
       -0.19935262 0.2620608 0.34709367 -0.0934315
000270 8a 5a 71 3e 68 c7 ca 3d 6d ce 89 be ed c6 85 bd
       0.23569694 0.09901315 -0.26915303 -0.06532083
000280 24 3f 90 be d4 8d f2 3d 5b b7 2c 3e 2b 18 c0 be
       -0.28173172 0.11843458 0.1686682 -0.3751844
000290 cc 64 f4 bd 62 7b 23 bc c3 fb 9b 3e c2 07 63 be
       -0.11933288 -0.009978147 0.30465516 -0.22170928
0002a0 84 cb bb 3a 5c c2 2f 3c 23 eb 1f be ed f8 09 be
       0.001432762 0.010727491 -0.15617041 -0.13473864
0002b0 47 a6 be bd d2 a7 a3 bd c0 d9 e3 bd 58 12 79 3d
       -0.09309059 -0.079909936 -0.11125517 0.06080851
0002c0 44 7b 61 bd f7 2c 4c be ca 9b 3e 3e e1 c9 72 3e
       -0.055049196 -0.19939028 0.18614116 0.23709823
0002d0 f6 a8 7a bd 32 6e 31 bd 94 8c af be 03 fd 84 be
       -0.06119629 -0.04331798 -0.3428694 -0.25974283
0002e0 e4 7f 0f bd d6 61 aa bd 5f a2 b3 3d 1e 97 4b be
       -0.035034075 -0.08319442 0.08771204 -0.19881865
0002f0 6e c0 8e bd 52 fc c8 3c 4e 7e af 3e 16 10 7f 3e
       -0.06970297 0.024534378 0.3427605 0.2490848
000300 c2 15 53 be dc 77 34 bb 6c b3 fd bc 6a ae 74 3c
       -0.20613769 -0.0027537262 -0.030969344 0.014934162
000310 b1 a5 30 3e 40 98 03 be 4c ba 99 bd a2 1c a7 be
       0.17250706 -0.12851048 -0.075062364 -0.32639033
000320 6b 54 15 be ac 8a bb be 47 49 d4 3d e2 a0 96 be
       -0.14582984 -0.36629236 0.10365539 -0.2941962
000330 63 d3 40 be 58 02 8b be 62 b1 86 3e 83 f2 00 be
       -0.18830638 -0.27150226 0.26307207 -0.12592511
000340 37 a4 ab 3e f3 0b 17 be a7 49 97 3e 61 2e 2d bd
       0.33523723 -0.14750652 0.2954838 -0.04228056
000350 ee c4 86 be 5f 4e 91 3e d3 cf 74 be f6 16 3d be
       -0.2632212 0.28380105 -0.23907404 -0.1846579
000360 09 1b 56 3e 97 a3 17 bd 2c 47 2b 3c ad c4 bd 3e
       0.2090875 -0.037021246 0.01045398 0.37064114
000370 b9 c4 9b be 21 73 f4 bd 24 61 02 3e cb 63 26 bd
       -0.30423525 -0.119360216 0.12732369 -0.040622514
000380 2c 44 ac 3b fd cb 02 be 32 59 d9 bc 6a 78 9e 3e
       0.00525715 -0.12773128 -0.02653179 0.30951244
000390 2d 99 ad bd 69 36 1c 3e 1b 95 83 3e 87 71 9a 3e
       -0.084764816 0.15255131 0.25699696 0.3016474
0003a0 8c b0 14 3e 09 33 63 3e 81 60 e8 bd 76 95 95 3b
       0.14520472 0.22187437 -0.11346532 0.0045649363
0003b0 9c 55 1c be 69 75 bb be 8d 6d 96 3e d2 7d ba be
       -0.15267032 -0.36613014 0.29380456 -0.36424118
0003c0 a7 3d 4a be 8f 7d ca bd e3 74 97 be b2 fb 82 be
       -0.19750081 -0.0988723 -0.29581365 -0.25582653
0003d0 01 c0 34 be 85 52 e8 3c e0 3e 9e be 27 12 82 be
       -0.17651369 0.02835966 -0.30907345 -0.25404474
0003e0 1a 95 6e be ce 50 95 be c0 4c 66 3d cc 84 2d bc
       -0.23299065 -0.29163212 0.05622554 -0.010590743
0003f0 16 53 99 3d cd 5d 9f 3e a9 c5 1f be f8 a3 1b be
       0.074865505 0.31126252 -0.15602745 -0.15199268

model.lstm.weight_hh_l0 f4 [32, 8]
000000 91 b8 0f 3e 11 49 95 3e 2a a3 b5 3d 50 f1 43 bb
       0.1403525 0.29157308 0.08869012 -0.0029898472
000010 56 0f b5 3d 3a a9 bf be 54 12 8a be 2f ed 11 be
       0.08840816 -0.37433797 -0.26967108 -0.14250635
000020 0a 8c ad be dc 51 7a be 5c c6 83 be 95 b0 a7 3d
       -0.33895904 -0.2444529 -0.25737274 0.08187977
000030 43 12 02 3e 0a a0 33 3c 21 27 83 bd 74 bf 04 bc
       0.12702279 0.010963449 -0.064039476 -0.008102287
000040 3f af 72 3e e7 10 92 be 46 82 6d 3e 59 d8 37 3e
       0.23699664 -0.2852852 0.23194227 0.17953624
000050 b5 97 17 be ae 64 67 3e 28 77 bb bc b6 73 2e be
       -0.14803965 0.22597 -0.022883967 -0.17036328
000060 90 61 ab 3e 49 04 a0 3d 70 8b 85 3e e7 95 a2 bd
       0.33472872 0.07813317 0.26082945 -0.07938748
000070 7a 3d a4 be cb 60 89 3e cd f9 ba 3b 1e 4a 44 3e
       -0.32078153 0.2683166 0.005706048 0.19168898
000080 b2 b4 97 bd 8a 3d 10 3e 7c 91 91 be f9 9a db 3c
       -0.07407512 0.14085975 -0.28431308 0.026807295
000090 00 df 86 3e fa db b7 bd 41 50 9c 3e ff a5 14 3e
       0.2634201 -0.08977504 0.3052998 0.14516447
0000a0 f7 f7 1b 3e 1a 25 c0 3e c3 d3 86 bd 27 9e d5 bd
       0.1523131 0.37528306 -0.06583359 -0.10430556
0000b0 b3 e5 7a 3e 7c 36 21 be 35 51 75 be 50 6f 54 3e
       0.24501686 -0.1574344 -0.2395676 0.20745587
0000c0 3a 44 91 be 9b ed 1a be 48 a4 c2 3d 6d 1a 9f 3d
       -0.28372365 -0.15129702 0.095039904 0.07768712
0000d0 59 55 72 be 2f a8 e9 bd 2c 17 4e 3e 37 9d 63 be
       -0.2366537 -0.114090316 0.20126027 -0.22227941
0000e0 78 cc 35 3e 28 17 b8 bc 6b 99 f6 bd 46 d7 b9 be
       0.1775378 -0.02247198 -0.12040981 -0.36297053
0000f0 31 e8 89 bd c0 f8 a0 3e 41 50 2c be 68 63 94 be
       -0.0673374 0.3143978 -0.1682749 -0.2898209
000100 e0 60 df 39 a9 8d 6f 3e a0 45 f3 bd 4a ba bf 3e
       0.00042606052 0.23393883 -0.11878514 0.37446815
000110 d4 8c a0 3e 2d 33 98 3e 28 f5 6b be d4 81 79 be
       0.31357443 0.29726544 -0.23042738 -0.24365932
000120 aa 8c b3 be 8f da 3c bd b1 8c 58 be 54 2e 14 3e
       -0.35068256 -0.04610687 -0.2114742 0.14470798
000130 af 03 56 3d dd bf 99 3e a9 ab 9e be 58 5c a0 be
       0.052249607 0.30029193 -0.3099034 -0.31320453
000140 91 6f 28 bd d5 a9 91 3d 43 0d 8d 3e c8 56 3a bb
       -0.041122023 0.07112471 0.2754918 -0.0028433073
000150 05 65 8d 3e 81 62 f4 bd 6c 83 94 bd 5e b6 1b be
       0.27616134 -0.11932851 -0.07251629 -0.15206286
000160 de ef 07 be f4 d0 24 be 23 bd a0 be ad 16 d0 bc
       -0.13275096 -0.16095334 -0.313943 -0.025401438
000170 96 35 0e be e9 a6 7b be 47 67 8e be e6 88 a2 be
       -0.13887629 -0.2457539 -0.2781317 -0.3174507
000180 c6 44 8a bd 12 01 a0 be 02 95 9f 3e ff 76 b1 bd
       -0.06751399 -0.31250817 0.3116837 -0.08665275
000190 d6 c3 b9 3d 94 22 7d be 44 7d 23 3d 18 12 a3 be
       0.09070556 -0.24720222 0.039914384 -0.31849742
0001a0 3d c1 0c 3e a8 89 45 3e 07 78 a5 be 2f 95 07 3e
       0.1374559 0.19290793 -0.32318136 0.13240503
0001b0 4d 3d 8a 3d 41 4f 4c be cd 75 10 be c8 68 a6 3e
       0.067499734 -0.19952108 -0.14107437 0.32501817
0001c0 3f e2 22 be 48 c5 a7 3e 79 80 a6 3d 72 1c 40 3e
       -0.15906619 0.327677 0.08129973 0.18760851
0001d0 d5 e6 4c be d1 aa b8 3d 35 6e 4e 3d 5b 46 94 3e
       -0.2000993 0.09016956 0.05039807 0.28959927
0001e0 16 1d be be 02 96 f4 bd 8c 54 94 3b 63 a5 8d be
       -0.37131566 -0.11942674 0.0045266803 -0.27665243
0001f0 7e 79 a6 3d 56 da 7c 3e e1 62 71 3e 9c 80 44 be
       0.081286415 0.24692664 0.23572876 -0.19189686
000200 9a f7 2e 3e 3e ed 8c be c3 03 45 3e c9 d0 85 be
       0.1708664 -0.2752475 0.19239716 -0.26135853
000210 8d dc b1 be 6c 15 c5 3d 81 94 7b bd 28 44 84 3d
       -0.3473858 0.096232265 -0.06142092 0.06458312
000220 59 95 b5 3e d0 e6 a2 3e 93 f5 2e 3e a8 30 97 be
       0.35465506 0.3181672 0.17085867 -0.2952931
000230 a1 3a a2 bd fc 23 67 3c ae 82 bd be ae 4d 9f 3e
       -0.07921339 0.0141077 -0.37013763 0.31113952
000240 32 60 54 3e eb f4 0e be 0a 48 3a bd 63 f9 6a be
       0.2073982 -0.13960616 -0.045478858 -0.22946696
000250 72 3d 24 3e d0 26 ad 3d 06 d5 c8 bd 54 95 2e 3e
       0.16039065 0.084546685 -0.09806256 0.17049152
000260 2c 79 69 bd f2 6f 2a 3c 48 ee 72 3e d3 db 15 be
       -0.057000324 0.010402666 0.2372371 -0.14634638
000270 74 c6 b1 be a8 a8 30 3e c6 40 7e be c3 5d 22 3e
       -0.3472172 0.17251837 -0.24829397 0.1585608
000280 0b 23 e6 bd 1c a3 87 3e 2a 49 2c bc 80 69 23 be
       -0.11237153 0.2649163 -0.010515491 -0.15958214
000290 8c 09 7f be 07 3e 64 3e 85 45 6d be a1 b2 ac 3d
       -0.24905986 0.22289287 -0.23171051 0.08432508
0002a0 34 9a 95 3e 2d 58 9f be b5 f0 a2 be 8a 11 6d 3d
       0.2921921 -0.3112196 -0.3182427 0.057878055
0002b0 c5 60 25 be 18 d9 8f be 86 3e 5a 3e 6d 26 9b be
       -0.16150196 -0.28095317 0.21312913 -0.30302754
0002c0 5b 18 40 be fb 62 a3 be 1c 87 a2 3d f8 b6 7e 3b
       -0.18759291 -0.31911454 0.07935926 0.0038866382
0002d0 7f c7 2b 3e 1a 10 33 3e 92 c0 d1 3c 8b e0 f3 bd
       0.1677532 0.17486611 0.02560452 -0.119080625
0002e0 14 4f 97 3e 1f 50 36 3d 40 00 d0 3d b5 ee 9d be
       0.2955252 0.044510003 0.10156298 -0.30846182
0002f0 46 30 a7 be 75 12 1f be 90 30 2e be 9d a2 9e 3d
       -0.32654017 -0.15534385 -0.17010713 0.0774586
000300 7f a0 04 be 9d 50 92 3c 9d 9d 9a 3e 53 86 9d bd
       -0.1295185 0.017860705 0.30198374 -0.07691636
000310 df ab 82 3d 6c ff b2 bc 68 b5 51 3e c3 b8 29 3e
       0.06380438 -0.02185031 0.20479357 0.16574387
000320 08 cc 15 bd b5 82 5d 3e 36 84 84 3a 39 4a a5 bd
       -0.036571532 0.21631892 0.0010110203 -0.080707975
000330 53 80 ef bd 39 2b 89 be c9 f9 a0 3e 46 d5 79 be
       -0.11694398 -0.2679079 0.3144057 -0.24397764
000340 10 80 9f be 0d 5a 39 be 42 f7 45 3d 0e b5 a0 bb
       -0.3115239 -0.18100758 0.048331507 -0.004904396
000350 8c ba 09 3e 25 53 36 3e e4 41 3c 3e 6c 1f a0 be
       0.13450068 0.17805155 0.1838451 -0.31273973
000360 2a 8a 23 3e 6e 00 19 3e 75 84 4b be f2 5b 90 3c
       0.15970674 0.1494157 -0.19874747 0.017621968
000370 c2 dc 12 3d 78 bc f7 3c 26 af 33 3e 08 23 a6 3e
       0.035855062 0.030241236 0.17547283 0.32448602
000380 0e ad b1 3e 90 3a 65 3d 22 76 4f 3e 9f c5 1f 3e
       0.34702343 0.055964053 0.20259908 0.1560273
000390 a5 47 47 be 61 3b 79 3e c2 18 b4 bc 70 6f 20 3e
       -0.19460924 0.24339058 -0.021984462 0.1566751
0003a0 79 64 83 be 74 39 9e 3e 57 47 cd 3d 55 2b 6e 3d
       -0.25662592 0.30903208 0.100233726 0.058146793
0003b0 a8 67 95 be f0 00 18 bc f3 12 d2 bd cc d6 9e 3e
       -0.29180646 -0.009277567 -0.102575205 0.31023252
0003c0 e3 8e 98 be 28 2f 8d bd 12 89 26 be 98 99 6b be
       -0.29796514 -0.0689376 -0.16263226 -0.2300781
0003d0 d3 58 e9 3d 54 57 8a be 27 ff 0f 3e 38 42 51 3d
       0.11393895 -0.2701975 0.14062177 0.05108854
0003e0 d6 ae 58 be 14 ee e2 bc 02 07 01 3d d3 87 3b be
       -0.21160445 -0.027701415 0.031500824 -0.18313532
0003f0 5e 94 4f be 92 06 35 be 52 7e e1 3d d0 02 a4 be
       -0.20271441 -0.17678288 0.11010422 -0.32033396

model.lstm.bias_ih_l0 f4 [32]
000000 83 3e 7f 3e 00 f9 58 3e 2a cf b4 3e af a3 a0 3e
       0.2492619 0.21188736 0.35314304 0.3137488
000010 bf 80 31 be e6 88 33 be 2f 97 92 3e 78 ce 94 bd
       -0.17334269 -0.17532691 0.2863097 -0.07265943
000020 fa 44 6e be 48 32 42 be d5 85 8d 3e 59 c8 3b be
       -0.232685 -0.18964493 0.27641168 -0.18338145
000030 52 d8 ff 3d af 47 a2 be 6c 75 85 3e 71 de 93 3d
       0.12492432 -0.31695315 0.26066148 0.07220162
000040 d6 89 8a 3e e0 00 18 3d 26 18 1f 3e 36 3b 9d 3e
       0.27058285 0.03711021 0.15536556 0.30709237
000050 a5 2e 8c bd d5 72 7b be 77 ed 8d be 47 11 43 3e
       -0.06844834 -0.24555524 -0.27720234 0.1904956
000060 cb 64 4b be fc 23 a9 be 82 b1 8a be 4d fa 10 be
       -0.19862668 -0.33035266 -0.27088553 -0.14157982
000070 07 80 9a 3d 21 3c af be ca bd 0b be 09 85 9f 3e
       0.075439505 -0.34225562 -0.13646618 0.31156185

model.lstm.bias_hh_l0 f4 [32]
000000 2c 33 09 bd 6b f7 0e be 7b f1 47 3e c6 79 8d be
       -0.033496067 -0.1396157 0.19525711 -0.27631968
000010 e3 5c 80 be 61 9d ea 3c 9c a4 0e 3e 78 2b c0 be
       -0.25070867 0.028639497 0.13929981 -0.37533164
000020 b6 30 ad 3e ea be 21 be 92 70 a8 3d c8 b9 89 3e
       0.33826226 -0.15795484 0.08224596 0.26899552
000030 52 29 0b 3e 92 49 b4 3d 44 3b 97 be 5f b5 b5 be
       0.13589981 0.08803095 -0.29537404 -0.35489938
000040 df fd 21 3e 0e 6e 1c 3d d0 9f 45 3e 63 f4 46 3e
       0.158195 0.038190894 0.19299245 0.19429164
000050 18 6f 9d be 1d 99 b1 3d cf 35 9c be 42 54 59 be
       -0.3074882 0.08671782 -0.30509803 -0.21223548
000060 5b ee fd 3d 4b 69 26 bd 41 0e 4a be 92 1e 0a 3e
       0.12398978 -0.04062776 -0.19732 0.13488224
000070 77 a9 82 3e 0b 1d bd be 05 cd b7 3e 05 47 2c 3e
       0.25519916 -0.3693622 0.35898605 0.16823967

model.lstm.weight_ih_l1 f4 [32, 8]
000000 38 ff 3b bd 3e c7 a0 be 19 a8 05 be 2f 5a ba 3d
       -0.045897692 -0.3140201 -0.13052405 0.090992324
000010 af 2c 06 be 5a 66 c9 bd 48 e6 06 be 85 5f a3 3e
       -0.13102983 -0.09833975 -0.13173783 0.31908813
000020 3f 12 a4 3e d8 59 9c be 1d 91 04 be 54 fc ae 3e
       0.3204517 -0.30537295 -0.12945981 0.34176886
000030 ec 93 31 bd fc 8f 45 be c7 5a bf 3c 0e e0 9b 3e
       -0.04335396 -0.19293207 0.023358716 0.30444378
000040 de 13 8c bd 39 fa 9d be 5a 17 bb bd 15 32 1c 3e
       -0.06839727 -0.30854967 -0.09135313 0.1525348
000050 84 84 eb bc da 6e 8b 3e a3 04 14 3e a2 e7 a3 bc
       -0.028749712 0.2723301 0.14454894 -0.020007912
000060 13 8f e4 3d 16 30 d5 bc 2f e2 8d be 8b 1a a7 be
       0.11160102 -0.026023906 -0.27711627 -0.32637438
000070 35 93 82 be 7a 99 08 bd ba b9 6d be 3b d7 05 3d
       -0.25502935 -0.03334949 -0.2321538 0.032675963
000080 a8 f1 92 3c 9b ea 97 3e a0 85 31 3d 7a c4 19 3d
       0.017937496 0.29671177 0.043340325 0.03754089
000090 14 aa 18 3e be c0 a0 bd 7c 73 1e be a6 56 b7 be
       0.1490863 -0.07849263 -0.15473741 -0.35808295
0000a0 29 ed bc be f9 7e 24 3d 1e fe 13 be 45 bc 96 3d
       -0.3689969 0.040160153 -0.14452407 0.07360128
0000b0 07 7c e4 3d 66 80 99 3e 66 79 94 bc f5 ac 90 bc
       0.11156469 0.29980773 -0.018124294 -0.017660597
0000c0 46 3f 62 3e c4 f5 8e 3d 7e 81 2d 3e 1d 19 5b be
       0.2209445 0.0698047 0.16943929 -0.21396299
0000d0 bd b9 6e be 55 77 96 3e 25 da 8d 3e 2b 64 f2 bd
       -0.23313041 0.29387918 0.27705494 -0.11835512
0000e0 25 a5 10 3d e9 39 97 be d0 3f 36 3d 9a 00 b4 be
       0.035313744 -0.2953637 0.04449445 -0.3515671
0000f0 ff f2 63 3e ab 9c a7 be c2 72 7a bd 57 8e a0 3e
       0.22260664 -0.32736716 -0.061144598 0.31358597
000100 05 60 09 be 60 5a 34 be ef b5 ac 3e 6a b4 47 be
       -0.13415535 -0.176126 0.33732554 -0.19502416
000110 1b 8b c6 3d 04 ba 5b 3e df 64 dd 3d 0f 71 68 be
       0.09694501 0.21457678 0.10810255 -0.22699378
000120 ce 5f af 3e a0 57 0f 3e 34 28 79 be be 24 38 be
       0.3425278 0.1399827 -0.24331743 -0.17982766
000130 92 de d6 bd f6 2f c6 3d c7 1c e9 3d f4 b0 8f 3d
       -0.10491671 0.096771166 0.11382442 0.07016173
000140 35 6d 55 3e 0b ee c0 3e 52 18 cc 3d 03 ab eb 3d
       0.2084244 0.37681612 0.09965576 0.11507227
000150 bd fd 65 3e bd b3 bd 3d 2f 24 37 3d 70 fa 96 3e
       0.22460075 0.09262798 0.04471224 0.29487944
000160 bb 0a 62 3e 1b 3f 81 3e 65 88 e5 bd 83 db 44 be
       0.22074406 0.25243458 -0.11207656 -0.19224362
000170 bc d1 2c be 17 df 8b be 8a af 4d bc 75 52 38 3e
       -0.16876882 -0.27318642 -0.012554059 0.18000205
000180 8b 2d ef 3c 4f a0 c7 bd 08 07 d1 bc ea 4c 96 be
       0.029196521 -0.09747373 -0.025516048 -0.29355556
000190 77 b0 50 be 6d 38 5d 3d 4f 6e 3c be 6b 32 95 3c
       -0.20379816 0.05400889 -0.18401454 0.018212518
0001a0 fb 9b 88 3e 2b c2 da 3d 2a b5 95 3e cc 44 7e be
       0.26681504 0.10681566 0.2923978 -0.24830931
0001b0 17 ea 06 3d f8 72 a5 be d0 74 e2 3c 15 18 8e be
       0.03293809 -0.32314277 0.027643591 -0.27752748
0001c0 bd 94 9e 3e 3f 30 97 be 56 96 01 3e 00 83 6f be
       0.30972853 -0.29528996 0.12655005 -0.23389816
0001d0 d0 ec f4 3d 8a 79 b8 3c 74 fe ab bc 2b b0 0e be
       0.11959231 0.022518892 -0.020995356 -0.1393439
0001e0 00 db 50 3e c3 a4 35 bd 4c ba 53 3d 36 f0 04 be
       0.20396042 -0.044346582 0.05169134 -0.12982258
0001f0 d4 81 70 be a5 c0 fe bd 2b a0 ae 3e d0 5b a3 3e
       -0.23487025 -0.12439088 0.34106573 0.31905985
000200 0e e7 37 be 65 1f 85 3d f2 78 9e 3d 2a 53 97 3e
       -0.17959234 0.06500129 0.07737912 0.29555637
000210 7d 88 8c 3d b2 78 09 3d da 36 b7 bd 0e f3 b8 3d
       0.068619706 0.03356237 -0.08946009 0.09030734
000220 fa f1 bf be dc f0 a5 be 66 33 94 bc c6 52 89 be
       -0.374893 -0.32410324 -0.018090915 -0.26820964
000230 ca fd 62 be 31 31 1b bd e6 bb 5e 3e 06 f2 19 3e
       -0.22167125 -0.03788871 0.21751365 0.15033731
000240 77 4a 16 be 10 0e fd 39 0d fe b5 3e 45 85 57 3d
       -0.14676844 0.00048266398 0.35545388 0.05261733
000250 98 60 87 3e 18 10 fd bd 55 03 96 be de c1 3f be
       0.26440883 -0.12356585 -0.29299417 -0.18726298
000260 35 f3 da 3b 53 da 83 bd be a1 27 be 70 b5 a1 3e
       0.0066818246 -0.064381264 -0.16370293 0.31583738
000270 18 e9 9a be a4 87 05 3d 42 51 29 3e 5f 24 e8 bd
       -0.3025596 0.03260006 0.16534904 -0.11335062
000280 6f 25 07 3e 46 af f8 3c e5 f5 40 be d1 eb 5a be
       0.13197874 0.030357014 -0.18843801 -0.2137902
000290 b8 8e 0b be bf 56 a6 be 2e c4 75 3e b9 1c 98 3e
       -0.13628662 -0.32488057 0.24000618 0.29709414
0002a0 b9 f3 53 be 1d 7f 05 3d 66 d2 10 3e a0 fc 99 3d
       -0.20698442 0.032591928 0.1414276 0.075188875
0002b0 c4 f4 2f be 70 9a 42 be c9 63 bd 3e 28 0c 43 3e
       -0.17183214 -0.19004226 0.36990193 0.19047606
0002c0 5e 40 b5 3e 05 f5 7a 3e 53 60 08 bd de 8a 8b 3e
       0.3540067 0.2450753 -0.033294987 0.27254385
0002d0 17 4c 0a bd d2 09 e7 bc 04 e1 36 be 23 15 8f 3e
       -0.03376397 -0.028202925 -0.17859274 0.27945814
0002e0 58 8f 52 bd fe cb 06 3d 49 f7 9a be 6d 68 14 3e
       -0.051406235 0.032909386 -0.3026679 0.1449296
0002f0 cc bc 43 be 2c 83 d3 bd 18 21 66 bd ce b8 15 3e
       -0.19114989 -0.103277534 -0.056183904 0.14621279
000300 c0 8e e5 ba c7 c9 b9 3d f1 92 57 be 07 47 92 be
       -0.0017513856 0.09071689 -0.21052147 -0.28569815
000310 8b 1c 17 3e fc 60 02 be 75 9d 94 be 61 f8 0b be
       0.14756982 -0.12732309 -0.2902638 -0.13668968
000320 3f d0 a6 be 6a 66 27 3d a2 85 b1 3b fc 1b b2 3e
       -0.32580754 0.040869154 0.0054175416 0.34786975
000330 1c 33 5f be 7e 1d 50 be 73 b3 85 3d a7 4a 8c bd
       -0.2179684 -0.2032375 0.06528368 -0.06850176
000340 97 13 81 3e 86 3f a1 3d bd c9 9e 3c 28 e2 22 be
       0.25210258 0.07873444 0.019383306 -0.15906584
000350 fe d1 72 3e 1b 69 12 be 8a 28 29 3e 9f e1 50 3e
       0.23712918 -0.14297907 0.1651937 0.20398568
000360 63 01 9a be d2 3c 95 be 65 25 31 be 4f d0 15 3e
       -0.30079183 -0.29147965 -0.17299421 0.14630245
000370 e2 12 30 be 14 e6 66 3d 98 5a 9d 3d 95 55 60 3d
       -0.17194703 0.056371763 0.07683295 0.054769117
000380 37 bb 4f be 34 31 24 3d 12 51 89 3e 68 8d 24 3e
       -0.2028626 0.040085986 0.26819664 0.16069567
000390 0e 20 ba 3d 60 06 85 be 1e 47 40 3e ba 5a 2a be
       0.09088145 -0.25981426 0.18777129 -0.16636172
0003a0 a0 3d 64 3e 0c e6 27 3e 7d 55 2e bd fe 7b e6 3d
       0.22289133 0.1639635 -0.042561997 0.112541184
0003b0 9c da fc bd 55 3b ae 3d 27 f3 f2 3b 6a bd 42 bc
       -0.12346384 0.085074104 0.00741424 -0.01188598
0003c0 b6 ee cf 3d 22 9c b5 3e 26 2c 17 be 60 24 a5 3e
       0.101529524 0.35470682 -0.14762935 0.32254314
0003d0 f4 72 2e bd bd b8 b8 3e 87 cc d5 3d e0 21 d6 3c
       -0.042590097 0.36078444 0.10439401 0.0261392
0003e0 05 2e 11 be 3b 24 2b be 47 24 a6 be 97 8f 5d be
       -0.14177711 -0.1671304 -0.32449552 -0.21636806
0003f0 b0 33 0f bc 23 20 a4 3e 4e 9b 5c 3e 2d ec 36 3d
       -0.008740351 0.32055768 0.21543619 0.04465883

model.lstm.weight_hh_l1 f4 [32, 8]
000000 8e d6 b7 be c3 a3 86 3e 7e 53 69 3e b5 5b 33 be
       -0.3590588 0.26296815 0.22785756 -0.17515452
000010 a5 45 00 3e 67 c3 9f be 9a 22 23 be 53 0a ba bd
       0.12526567 -0.31203768 -0.15931168 -0.090840004
000020 47 d3 98 be bb 3a 2c bd 36 a1 c0 3d d3 c9 01 3e
       -0.29848692 -0.042048197 0.094057485 0.12674646
000030 f7 d9 b4 3e e7 cf 67 3e 11 34 b1 be e9 3c 08 be
       0.35322544 0.22637902 -0.34610036 -0.13304485
000040 e9 57 33 3e cb d5 a1 be a6 1b 37 bd 18 a3 e2 3d
       0.17514004 -0.31608424 -0.044704102 0.11066264
000050 7c 23 85 be 1a 80 8f 3e ba 40 57 be be 1f 72 be
       -0.26003635 0.2802742 -0.21020785 -0.23644921
000060 9e 1f 95 be 5f bd 1c bd 0c bf c2 3d d5 4c a2 3d
       -0.29125684 -0.038266536 0.095090955 0.07924811
000070 6e 42 4a be 6e 97 92 3e 3c e1 2a be cc c1 99 3e
       -0.19751903 0.28631157 -0.16687483 0.30030668
000080 bd 04 c5 3d b7 9a bc bd 34 f5 74 3e 07 81 c0 3d
       0.096200444 -0.09209197 0.23921663 0.0939961
000090 0a 87 a5 be e3 d0 20 3e 54 d8 b6 3e 75 c6 77 be
       -0.3232959 0.15704684 0.3571192 -0.24196799
0000a0 bd 56 c9 bd 0d 42 85 be f7 16 5a 3e 6e 8c 28 3e
       -0.09830997 -0.26026955 0.21297823 0.1645982
0000b0 f1 d9 6f 3e be 9b 9a 3d 5e a0 10 bd f0 6a 2e bc
       0.23422982 0.07549237 -0.035309188 -0.010645613
0000c0 ec b4 92 be 25 00 7e 3e 09 81 29 be 7d 20 9a 3c
       -0.28653657 0.24804743 -0.1655313 0.01881432
0000d0 23 ad 32 bc 7a 7a ab 3d 6e 0b 86 be 75 73 06 bd
       -0.010905537 0.0837297 -0.26180595 -0.032824952
0000e0 61 9f 0f 3e 1b 57 73 be 7a 15 33 be a0 f5 5d be
       0.14025642 -0.23763697 -0.17488661 -0.2167573
0000f0 84 ca a4 be e1 10 a5 3e a1 f1 a7 3e 8e 42 7a 3e
       -0.32185757 0.3223944 0.32801536 0.24439451
000100 ed e7 9d be 24 cf 0d 3c 9c 57 53 3d 3d 2e 13 3e
       -0.30841008 0.008655343 0.051597223 0.14373107
000110 76 8f 5e 3d 60 9e 6e be ce e6 f6 3c 43 6b 8b be
       0.054336034 -0.23302603 0.030139353 -0.27230272
000120 0f 76 4c 3e f2 be 4e 3e 39 2e d6 bd ce 2d 92 be
       0.19966911 0.20190027 -0.10458035 -0.2855057
000130 6a 68 d4 3c 89 1b 50 3e f8 38 87 be 96 fd 01 3e
       0.025928695 0.20323004 -0.2641065 0.12694392
000140 e6 a5 64 3e c4 23 8a be eb d1 30 3e 5e 0d 0c 3e
       0.2232891 -0.26980412 0.17267577 0.13676974
000150 fb d5 51 be c9 24 8c 3e 43 ad 16 be be 50 95 3e
       -0.20491783 0.27371815 -0.14714532 0.29163164
000160 6c 6d 96 be f3 db 9a 3e da b2 d1 bd 77 70 ab be
       -0.29380357 0.30245933 -0.10239191 -0.3348424
000170 af 8c 29 3e 80 34 54 bd 86 8a fa 3d 31 23 3e 3e
       0.16557573 -0.05180788 0.122334525 0.18568112
000180 6a a0 79 3c e6 19 0a 3e ae f3 a3 be 92 a2 ab be
       0.015236 0.13486442 -0.3202185 -0.3352247
000190 9d 2b 41 be 39 6b 54 be 22 03 9f be 7c 05 9f 3d
       -0.18864293 -0.20744027 -0.31057078 0.07764718
0001a0 4e 62 54 bd 1d 31 58 bd 60 f3 25 bd 1e 6a 16 3e
       -0.051851563 -0.052781213 -0.040515304 0.14688918
0001b0 cd 94 1e be f8 af c6 ba 8e ff 0c bc 37 46 47 3e
       -0.1548645 -0.0015158644 -0.008605851 0.19460379
0001c0 50 a9 77 bd 6b a5 19 3e df a4 25 be 02 16 82 3e
       -0.060464203 0.15004508 -0.16176175 0.25407416
0001d0 9d b6 16 3d e7 cc 15 3d a2 f4 45 3e 97 c8 a8 be
       0.036795247 0.036572363 0.19331601 -0.32965538
0001e0 5e a1 08 3e 83 86 9d 3e b8 53 41 3e 4d 6f 54 3e
       0.13342807 0.30766687 0.18879592 0.20745583
0001f0 a2 02 9d be 9e 08 91 3e 5a 09 d0 3d d4 c3 a4 be
       -0.3066607 0.28326887 0.10158034 -0.32180655
000200 9d 8c 9b 3e f6 c3 93 3e 3d 95 91 bd 1b 19 a9 3e
       0.30380717 0.28860444 -0.07108543 0.33026966
000210 bf 1b a1 3b 5a 9b 88 3e cb 38 96 be e5 00 a1 be
       0.0049166377 0.26681024 -0.29340205 -0.31445995
000220 14 82 9a 3d af c4 a0 3c ba 55 a5 be 49 ba 63 be
       0.07544342 0.019625036 -0.32291967 -0.22239031
000230 c9 2a 33 3e d9 16 4f 3e 61 d2 7a be ac 47 0a be
       0.1749679 0.2022356 -0.24494316 -0.13503903
000240 ca 34 ae bc ad 08 bf 3c ec 37 91 be b9 a6 73 3e
       -0.021265406 0.023319567 -0.28362978 0.23794068
000250 08 5a 8a be 19 99 69 3e 62 25 48 be e3 ed a7 be
       -0.27021813 0.22812308 -0.1954551 -0.3279868
000260 0f 3d 84 3d 21 e9 13 be 92 d3 5b 3e 6d c1 0f be
       0.064569585 -0.144444 0.21467426 -0.1403863
000270 2f 42 29 3c e7 5d 75 3e e9 73 53 be 3a de f9 bd
       0.010330721 0.23961602 -0.20649685 -0.122005895
000280 e8 0d 60 3e c7 2a a3 3e 26 99 24 3d b1 a0 7e 3e
       0.21880305 0.31868574 0.040185116 0.24865986
000290 ea 57 44 3e c5 2e 36 3e 72 a5 0b 3c da f4 b9 3e
       0.19174162 0.17791279 0.008523332 0.3631962
0002a0 b9 23 0c be ef 8a 4b 3d 37 a5 06 be 82 45 4d bd
       -0.13685502 0.049693044 -0.13148962 -0.050115116
0002b0 25 ae 40 3e 4a 65 79 3e d0 1a 9c 3d f0 91 83 3e
       0.18816431 0.24355045 0.076223016 0.2569728
0002c0 ce 51 8b 3e 2b 32 17 3e a6 74 92 bd f3 80 69 3e
       0.2721085 0.14765231 -0.07151155 0.22803096
0002d0 e4 53 a4 3e f4 28 a2 3e 3e c2 8b 3d bb 53 72 3e
       0.32095253 0.3167187 0.06824158 0.23664753
0002e0 bc 60 62 be cb c1 2f 3d fa 14 93 be 07 ba 50 3e
       -0.22107214 0.042909425 -0.2872694 0.20383464
0002f0 cb bb 20 3d d0 01 38 bd e6 52 4f 3e 0e 51 9e bd
       0.039241593 -0.044923604 0.20246467 -0.07730304
000300 26 76 01 3e 1c 34 52 3e 30 f3 44 be 3c 5a a6 be
       0.12642726 0.2052769 -0.19233394 -0.32490718
000310 e4 95 50 3c 62 17 70 be 57 c7 38 be e8 5a 3c 3e
       0.012731049 -0.2344642 -0.18044792 0.18394053
000320 eb 1c d9 3d f9 1b ca bd d0 4a db bd ee 67 73 be
       0.10601219 -0.098686166 -0.10707629 -0.23770115
000330 ad db 03 be 8e 5a 37 3d 66 d2 6a be 48 94 af be
       -0.12876768 0.044764094 -0.22931823 -0.34292817
000340 08 1d bb be 65 cc 9e be 33 e6 3d be 70 c3 93 3d
       -0.36545587 -0.31015316 -0.18544845 0.07215011
000350 9b 0f 3d be aa 9e 57 3e 81 91 5d 3e ca e8 81 be
       -0.18462984 0.2105662 0.21637537 -0.25372916
000360 0a 6f 83 3d 24 ad 03 be e5 5e 8a 3e f4 2b 7b 3e
       0.064176634 -0.12859017 0.27025524 0.24528486
000370 a0 ae 0e 3e 33 c6 4c be ef fa 96 3d f2 d0 4c be
       0.13933802 -0.19997482 0.073720805 -0.20001581
000380 d6 00 f9 3c 13 2c be 3e ad 1e b9 bd 1c fc 67 be
       0.030395906 0.37143 -0.09039054 -0.22654766
000390 f9 a6 47 be 24 db 77 be 3d a6 4e 3e bd 8c 3e be
       -0.19497289 -0.2420469 0.20180602 -0.18608375
0003a0 15 2b 65 3e fa f1 6c 3e 1e 40 41 3e f6 50 23 bd
       0.22379716 0.23139182 0.18872115 -0.039872132
0003b0 14 62 c7 bd 1a bb d5 3d 2c af f5 bc 1b d0 29 3e
       -0.09735504 0.104360774 -0.029990755 0.16583292
0003c0 ae 2e 64 3d fe 6b 16 3e 85 16 33 be e7 31 4b 3e
       0.05570858 0.14689633 -0.1748906 0.19843255
0003d0 c8 fa b9 bd da ef 35 3e 20 50 f6 39 c9 02 a6 be
       -0.09081036 0.17767277 0.00046980474 -0.32424
0003e0 3a de 58 bd 1f 53 b6 bd d4 08 4b be 41 97 13 bd
       -0.052946307 -0.08902573 -0.19827586 -0.03603292
0003f0 b7 85 21 be 31 f0 a1 3b dc a1 a7 bd da 45 49 be
       -0.15773664 0.004941963 -0.08185169 -0.19655553

model.lstm.bias_ih_l1 f4 [32]
000000 49 41 e7 3d 1c 69 89 be 41 ff 97 be ce 89 a1 bd
       0.11291749 -0.26838005 -0.2968693 -0.07887612
000010 1b 92 59 bd f4 c5 b5 be 3c 70 1f 3e 7e 63 bf 3b
       -0.053117853 -0.3550259 0.15570158 0.005840718
000020 11 99 08 3e 63 d4 94 3c fe 7c cd bd c1 2d 17 be
       0.1333964 0.01816768 -0.10033606 -0.14763547
000030 a6 d6 5c bd a3 c4 9a be e5 02 07 3e 0c 2a 9e 3d
       -0.053915642 -0.30228147 0.13184698 0.077228636
000040 f5 76 72 3e 17 ad b4 be 61 7a 77 bd 98 99 26 be
       0.23678191 -0.35288307 -0.060419444 -0.16269529
000050 52 5c 27 bc 53 5b ed 3c 68 7f e6 bc e7 22 a6 bb
       -0.010214882 0.02897421 -0.028136924 -0.0050700787
000060 8e 33 9b bd d8 3c db 3d ac 9d 5d be 64 97 83 bd
       -0.07578193 0.107049644 -0.21642178 -0.0642536
000070 35 1b 1c 3e ad e5 5a 3e 36 8b 7f 3c 34 71 7e bd
       0.15244754 0.21376677 0.015597155 -0.062119678

model.lstm.bias_hh_l1 f4 [32]
000000 7e 7e 2d 3d 6a 5b 3c 3e 67 87 2b 3d aa 80 6a be
       0.04235696 0.18394247 0.041877177 -0.22900644
000010 c6 14 9a be b9 85 0f 3e 46 2f 34 be 76 5f df 3d
       -0.30093974 0.14015855 -0.17596158 0.109068796
000020 20 93 a3 be 1a 2d 5c 3e 80 7d 00 3e 7c 6e be bd
       -0.31948185 0.2150158 0.12547874 -0.09298417
000030 6b b8 95 be cf c9 83 bd d4 08 35 3e 18 c5 79 3e
       -0.29242262 -0.06434976 0.17679149 0.24391592
000040 92 ea ee bc 5c 6d 54 bd 48 6a 88 3e b6 db 19 3d
       -0.029164586 -0.051862106 0.26643586 0.03756305
000050 6b 01 a2 3e 8b f4 96 3e 9f fd 51 be a7 0d 67 be
       0.31641707 0.29483446 -0.20506905 -0.22563802
000060 44 fe 09 be 66 33 07 bd b0 09 98 3e 0d 14 94 be
       -0.13475901 -0.033008 0.2969489 -0.28921548
000070 29 a2 0a 3e 25 ee 7c 3e 30 50 e1 ba b2 b2 a3 be
       0.13538422 0.2470022 -0.0017190035 -0.3197227

model.lstm.weight_ih_l2 f4 [32, 8]
000000 bd 18 94 be e2 3b 9b 3d c0 37 a3 3d d0 38 77 3d
       -0.28925124 0.07579781 0.07969618 0.060356915
000010 6a 7b 4a 3e cb 8e 51 3e 75 7d 92 be 11 ab 41 3e
       0.19773641 0.20464627 -0.2861134 0.18912913
000020 be 6f 77 3e 8f 04 4c be b5 5d 4c be ff fe 96 be
       0.2416372 -0.19923614 -0.19957621 -0.29491422
000030 d8 78 a7 be 3a 4b 53 3e a5 a0 9f 3d cf 5c 5b be
       -0.32709384 0.20634165 0.077943124 -0.21422122
000040 3d 91 9a be 1f f4 ae be 3b 85 ab 3e 57 e1 07 3e
       -0.30188933 -0.34170625 0.33500084 0.13269554
000050 48 2e 93 3d c4 14 79 bc 30 e2 06 3e 5c 72 c2 3c
       0.07186562 -0.015202705 0.13172221 0.023736171
000060 82 06 31 3e b5 e1 94 3d bc b8 27 be c9 d3 12 be
       0.17287639 0.07269613 -0.16379064 -0.14338602
000070 fd fd e6 3d 49 15 df 3d 0b 40 6a 3e b1 44 90 be
       0.11278913 0.10892732 0.22875993 -0.28177407
000080 2f bc 18 3e b2 a4 9a be 36 83 02 3c 07 c1 9e be
       0.14915536 -0.30203778 0.007965853 -0.31006643
000090 6c 56 49 be 33 06 66 be a3 20 ad 3e 07 a5 ac 3e
       -0.19661874 -0.22463302 0.33813962 0.33719656
0000a0 cb 03 38 be 2a 0c 03 3c e1 41 a3 be 78 27 a0 be
       -0.17970197 0.007998506 -0.318862 -0.31280112
0000b0 f8 a2 4e be 1a 2c 3d 3c 70 42 97 be 10 28 50 bd
       -0.20179355 0.011546159 -0.29542875 -0.050819457
0000c0 f0 97 8b 3d ee 66 57 bc aa 1f e3 3b ec cb ae 3d
       0.06816089 -0.013147099 0.006931265 0.08534989
0000d0 4f 0e bd 3e d1 e2 90 be 42 2d 8d be 68 91 29 3e
       0.3692498 -0.28298047 -0.2757359 0.16559374
0000e0 d5 62 af 3d 7c 27 a5 3e 88 ba 84 3e f8 47 92 be
       0.085637726 0.32256687 0.25923562 -0.28570533
0000f0 7a d3 d2 bd 83 83 ae be da 55 29 3e b1 21 6f 3e
       -0.10294242 -0.3408471 0.16536656 0.23352696
000100 86 0a 9b be 1f 77 2d be 1f 16 2a 3e b1 37 83 3d
       -0.30281466 -0.16939972 0.16610001 0.06407107
000110 83 3e 79 be 45 72 c6 bc 1e 17 5a be 0d 6c 23 3e
       -0.24340253 -0.02422441 -0.21297881 0.15959187
000120 2f 64 b3 3d 12 26 9b 3d 5a f8 87 3b b1 50 2b 3d
       0.08759343 0.07575621 0.004149479 0.041825
000130 87 3f 76 be 7e 0a b4 3e 42 d5 17 bd 22 29 49 bc
       -0.24047671 0.35164255 -0.037068613 -0.012277873
000140 a7 b1 3e 3d a5 2f b1 be 5a 77 d8 3d 0d f3 a3 3e
       0.04655614 -0.34606662 0.105696395 0.3202137
000150 8b 5f 61 3e 8d b4 81 3d 13 7e b6 3d 67 48 45 3d
       0.22009103 0.063332655 0.089107655 0.04816475
000160 63 51 ab 3c 6e c3 0c 3e f9 d1 09 3e 09 ac 0b 3e
       0.020912832 0.13746426 0.13459004 0.13639845
000170 d1 6a 46 be 5c 4a c3 bc 88 a8 4c 3e 10 ed 59 3e
       -0.19376685 -0.023839168 0.19986165 0.21281838
000180 ae ed 62 be 29 06 0d 3e 28 32 84 be 4f cc 8d 3d
       -0.2216098 0.13771881 -0.25819516 0.069237344
000190 62 e9 cc 3d 70 0e 71 be b3 f8 91 3e 03 c1 8c 3e
       0.10005452 -0.23540664 0.28510055 0.27491006
0001a0 a0 95 6c 3e 6c 1d f5 3d 5f d4 fb 3d f9 6a f2 bc
       0.23103952 0.119685024 0.12296366 -0.029592024
0001b0 cc 16 57 be 39 c8 ad 3d 2b f3 04 be ce 52 e9 3d
       -0.2100479 0.08485455 -0.12983386 0.11392747
0001c0 87 ed 25 be 96 d2 2a be 2d 59 85 be 83 28 97 bd
       -0.1620389 -0.16681895 -0.26044598 -0.07380774
0001d0 41 69 6e 3e 22 e8 03 3e bb 3a 4a bd 5e 33 52 3e
       0.23282339 0.1288152 -0.049372416 0.20527408
0001e0 40 2a 6b 3e 21 53 04 be 82 58 91 be b0 23 7f 3e
       0.22965336 -0.12922336 -0.2838784 0.24915957
0001f0 78 c9 af be c8 41 97 be 2c c9 88 be b5 5d 52 be
       -0.34333396 -0.29542375 -0.26715982 -0.20543559
000200 ab d7 5d be 89 74 37 bc 2c e8 07 be 31 32 97 3e
       -0.21664302 -0.011197218 -0.1327216 0.2953048
000210 b6 c9 95 be 5d 32 7a be 30 93 b2 be ae 0d ab be
       -0.29255456 -0.24433275 -0.3487792 -0.33408874
000220 4a 4d 82 3d 7f c1 65 be 57 fc c8 bd 99 f3 4f be
       0.06362398 -0.22437094 -0.09813755 -0.20307769
000230 79 d0 ef bd 23 c0 2d be 1c b1 7d 3e 9c 9d 09 be
       -0.11709685 -0.16967826 0.24774593 -0.1343903
000240 d4 fd 22 be c7 d8 3d 3e 16 ba ac 3e f5 a5 9d 3e
       -0.1591714 0.18539725 0.33735722 0.30790678
000250 6a 8c 12 bd b8 7f a3 3d 4e b4 4d be e9 91 52 bd
       -0.03577844 0.07983345 -0.20088312 -0.051408682
000260 bf 97 98 3c 00 ae 40 be 18 88 91 bd 22 db 15 3e
       0.018627046 -0.18816376 -0.07106036 0.14634374
000270 b9 68 8a 3d bd f3 9d 3e ad fa cb bd 4e 05 02 be
       0.067582555 0.3085002 -0.09959922 -0.12697336
000280 c8 64 9f be e9 53 16 3e d5 7c 18 be 95 e9 9c be
       -0.31131577 0.14680447 -0.1489137 -0.3064696
000290 49 b0 83 3d 87 d8 e7 bd 94 18 72 be d0 bb 3e 3e
       0.06430108 -0.11320596 -0.23642188 0.18626332
0002a0 ff 61 71 be 25 25 4b 3e 9b a9 8e 3e 30 b4 4a 3e
       -0.23572539 0.19838388 0.27863774 0.19795299
0002b0 6e 78 29 be 01 83 7a 3e f3 be 5f be 38 f9 9d 3e
       -0.16549847 0.24464037 -0.21850185 0.308542
0002c0 b5 99 1d bd 92 15 35 be 7a d2 2d 3d 6c 4a af 3e
       -0.038476665 -0.1768401 0.042437054 0.34236467
0002d0 c1 96 a4 bd b7 46 8e 3e f3 44 7b 3d 59 bd 8c be
       -0.080365665 0.27788326 0.061345052 -0.2748821
0002e0 9c 44 91 be 4b 41 a5 3e df 8f 9a 3e 44 c3 40 3e
       -0.28372657 0.32276377 0.3018789 0.18824488
0002f0 3d 67 a3 3e 4a 14 83 be 37 ce 27 be 56 3d e2 bd
       0.31914702 -0.25601417 -0.16387258 -0.11046855
000300 19 d3 5f be df 34 81 bd 37 4d d7 3d c5 09 ec 3c
       -0.21857871 -0.063089125 0.105127744 0.028813252
000310 f3 e6 42 3e dc 65 05 be e0 c6 a5 3e 4d 46 b7 3d
       0.19033413 -0.13027138 0.32378292 0.08948956
000320 6f 3f 7b 3e f6 c0 81 3e f6 7d c1 3a 79 e7 b5 3e
       0.24535917 0.2534253 0.0014762271 0.35528162
000330 18 14 55 3e 98 99 47 be d8 30 62 3b 67 b9 46 be
       0.20808446 -0.19492185 0.0034513976 -0.19406663
000340 22 ef a6 3d 35 2e 68 be 97 3d f0 bd 0e d2 05 be
       0.0815108 -0.22673877 -0.11730497 -0.13068411
000350 79 56 a8 be 2d 40 ad 3e b3 be 08 be f8 70 fb bd
       -0.32878473 0.33838025 -0.13353996 -0.122774065
000360 17 ec 51 3c 4e 61 31 bc 2a e4 8e be 93 6a f4 3d
       0.012812636 -0.010826422 -0.2790845 0.1193439
000370 04 5a 4e be 66 f6 85 be 05 3d 6e be 0e bf 97 be
       -0.20151526 -0.2616455 -0.23265465 -0.2963795
000380 47 35 82 3e d6 59 21 3e 07 30 93 3e 0e 78 9d be
       0.25431272 0.15756926 0.2874758 -0.30755657
000390 fa 58 9b be 98 11 f1 3d ce 29 12 be 10 ce af bd
       -0.3034132 0.11770934 -0.1427376 -0.08584225
0003a0 4c 34 6c be 71 ad 8c be d6 53 6c be c1 2e 7b be
       -0.23066825 -0.27476075 -0.23078856 -0.24529554
0003b0 4b 4f 22 3e 32 a5 03 bd 89 8d 79 3e e4 01 a9 3e
       0.1585056 -0.032139964 0.24370398 0.33009255
0003c0 e3 87 81 3e 2e 0b 9c be a7 92 66 3e 1d d7 63 3e
       0.25298986 -0.3047728 0.22516881 0.22250028
0003d0 57 11 10 be 0e 71 63 bd 97 ae c8 3d f7 22 63 bd
       -0.14069115 -0.05552774 0.09798925 -0.055453267
0003e0 40 91 74 be 5e 1c 26 bd 57 f7 f4 bd 44 df 45 3e
       -0.23883533 -0.040554397 -0.11961239 0.1932345
0003f0 2a b6 06 3e 7a 54 4b 3e 18 01 01 3c 21 4a 99 be
       0.13155428 0.19856444 0.007873796 -0.29939368

model.lstm.weight_hh_l2 f4 [32, 8]
000000 c0 0c bb 3e 85 e8 09 3d 55 79 02 3e 94 ba 35 be
       0.36533165 0.033669014 0.12741597 -0.17746955
000010 4b c9 a1 3b e3 ed 93 3d b5 da 2a be a1 7d 5f be
       0.004937326 0.07223108 -0.16684993 -0.21825267
000020 0a 20 9c 3d da 97 86 3e 25 20 96 3e 5c 09 ce 3d
       0.076232985 0.2628773 0.293214 0.10060379
000030 04 2c 0a 3c 4d 2d 39 3e c8 7d b8 bd 55 ae 96 3e
       0.008433346 0.18083687 -0.09008366 0.2942988
000040 6d c3 29 3e 65 59 bb be f9 9e a9 3e f4 ed 67 3b
       0.16578455 -0.3659164 0.331291 0.0035389634
000050 dd 36 90 be 74 ab f7 bd 0c 13 b7 3e 84 a1 8f be
       -0.28166857 -0.12093249 0.3575672 -0.28052914
000060 20 db 83 3d fe 2f 0c be 97 13 8d be eb 96 f4 3d
       0.06438279 -0.13690183 -0.27554008 0.11942848
000070 10 be 3e 3e a6 a2 bc 3e 15 80 8a be ea 1f 45 3e
       0.1862719 0.3684284 -0.27050844 0.19250455
000080 23 46 8c 3e 2e 11 60 3c 79 f5 80 3e be 95 b0 3e
       0.2739726 0.013675971 0.2518728 0.34489244
000090 44 19 87 be 8f de 1e 3e 68 eb 7d 3d 09 60 8f 3c
       -0.26386464 0.15514587 0.06199208 0.017501848
0000a0 3f fe 90 3e f0 d6 2a 3d 3c a4 1c be 92 12 a6 3e
       0.28318974 0.041708887 -0.15297025 0.32436043
0000b0 f2 16 69 3e 53 55 18 3e 02 47 f1 bd 0a a3 a2 be
       0.22762659 0.14876299 -0.11781122 -0.31765014
0000c0 6c 47 94 bd c7 f7 ab bd a8 68 65 bd 29 1c 4a be
       -0.07240185 -0.08396869 -0.05600801 -0.19737305
0000d0 31 96 70 3e 54 ad 1e bd 5d 82 a8 be fa c1 54 be
       0.23494793 -0.038739517 -0.3291196 -0.20777121
0000e0 b2 63 a7 be 25 28 5f 3e 28 cf 76 bd 52 33 22 be
       -0.3269325 0.21792658 -0.060256153 -0.1583989
0000f0 8b 9d 7e be a6 4f 19 3e 1c bc a7 be b1 28 b0 be
       -0.24864785 0.1497179 -0.32760704 -0.34406045
000100 7e 78 3a bc 94 81 6f 3e 71 fe 9a be 88 af 52 be
       -0.011381267 0.23389274 -0.30272248 -0.20574772
000110 15 c0 0b 3e e1 35 bb be b4 dc 58 3e 07 7a 2a 3e
       0.13647492 -0.36564544 0.21177942 0.16648112
000120 74 ec 18 3e ec 6a 8f 3e 8d 11 a6 3e 25 3e 3b be
       0.1493395 0.28011262 0.32435265 -0.18285425
000130 6f 4f 36 3e e1 25 5c 3e d8 a1 38 3e b2 63 99 bd
       0.17803739 0.21498825 0.18030488 -0.074897185
000140 41 28 5c be b6 0b 78 be 3a b1 b1 3d 52 05 b8 bc
       -0.2149973 -0.24223217 0.086763814 -0.022463474
000150 ae 95 66 3b 38 a6 a9 3e 39 ea 8b be ea 38 c5 3d
       0.003518443 0.33134627 -0.27327135 0.09629996
000160 53 77 22 3d 71 d7 08 bd db cc 7e 3e 44 ac 59 3e
       0.039664578 -0.033408586 0.24882834 0.2125712
000170 1c cf 83 be 81 c1 aa 3d 1d ca 47 be 6e 73 34 be
       -0.2574395 0.08337689 -0.19510694 -0.17622158
000180 cf cd 8b be 6e d6 1d 3e 83 62 69 bd b5 5c 4f be
       -0.27305457 0.1541383 -0.056978714 -0.20250209
000190 6e cc 43 bd 99 b6 46 bd e1 1a e4 3d fb 8d 8e 3e
       -0.04780238 -0.048513982 0.11137939 0.27842698
0001a0 45 69 59 be 90 18 1e 3a 97 4d a4 3e de d8 82 3e
       -0.21231563 0.0006030882 0.32090446 0.25556082
0001b0 c6 2b 3e 3e e8 33 04 be f0 b5 1f 3d a4 63 ab 3a
       0.18571386 -0.12910426 0.03899187 0.001307596
0001c0 6e 7d 94 bc 3a 25 5a 3e d0 07 d8 bd 14 fe d4 bd
       -0.018126216 0.21303263 -0.10548365 -0.10400024
0001d0 a6 0a 69 3e 5e bb e0 3d fd 16 a3 be 14 c1 4e bd
       0.22757968 0.109732375 -0.31853476 -0.050477102
0001e0 6f c5 85 3e cb 3c 72 3e dc 46 5d 3e fb bc 3d be
       0.26127192 0.23656003 0.21609062 -0.18529122
0001f0 28 70 77 be 91 02 b9 3d 14 30 7f 3e 99 74 88 3e
       -0.24163878 0.09033693 0.24920684 0.26651457
000200 94 7d e7 3d 83 0d 3f 3e 0e fd 65 be 34 c6 81 3d
       0.11303249 0.18657498 -0.22459814 0.06336632
000210 6a 40 71 bd 66 d0 98 3c db 63 41 3e 67 38 78 be
       -0.05889932 0.01865406 0.18885748 -0.24240266
000220 4a d4 6b 3d da b7 d2 bd 19 db 23 3e 30 84 97 be
       0.0575755 -0.10288973 0.16001548 -0.2959304
000230 ff 75 31 be d4 96 8c be 8b 4c 7a 3e 40 1a 4b 3e
       -0.17330168 -0.27458823 0.24443261 0.19834232
000240 dc ca 89 3e 82 b8 aa 3e 60 ba f8 3d 13 c5 f3 3c
       0.26912582 0.33343893 0.12144923 0.029757058
000250 5f f8 a7 3d 30 6c 98 3d d3 8f 6d 3d 74 1d 80 be
       0.0820167 0.0744251 0.05799849 -0.2502247
000260 81 d7 97 3e 10 b2 61 be df 68 6c 3e 95 a5 38 3e
       0.29656604 -0.22040582 0.2308688 0.18031915
000270 60 39 e6 3d fb 8f e2 3d 65 99 70 3d bf c4 46 be
       0.11241412 0.11062618 0.05874004 -0.1941099
000280 c6 b8 57 be 26 94 4e be d7 a1 45 be 6b d0 0e 3e
       -0.21066579 -0.20173702 -0.19300018 0.13946693
000290 12 d8 82 3b 2d 12 9a 3c be 88 ee 3d 61 a3 b2 3e
       0.0039930427 0.018807495 0.11647175 0.34890273
0002a0 8d 53 89 bb c2 18 17 be 9f 23 8d be 3a 92 a0 3e
       -0.004190868 -0.14755538 -0.2756624 0.31361562
0002b0 a2 69 94 be d3 69 19 3e d8 43 93 3e ab 4f 2a 3e
       -0.2898684 0.14981775 0.28762698 0.16631953
0002c0 32 52 d6 bc a9 e0 83 bd 75 74 75 3e 88 87 52 be
       -0.02616224 -0.06439335 0.23970206 -0.20559514
0002d0 50 83 d7 3d 0d ee b4 bd 1c 15 51 3e e2 d8 6f bd
       0.10523093 -0.08834467 0.20418209 -0.058556445
0002e0 37 ec 59 be 5a 86 e7 bd 99 aa 41 3e b2 ef 19 3e
       -0.21281515 -0.113049224 0.18912734 0.15032843
0002f0 cb b5 68 be 5d 41 81 be 19 cf c0 bd 55 f0 65 bd
       -0.22725599 -0.2524518 -0.09414501 -0.0561374
000300 b7 25 a2 bd f7 54 85 3e 60 21 a9 3a 1c 50 92 bd
       -0.0791735 0.26041386 0.0012903623 -0.07144186
000310 6c 79 0c 3b 7b 21 0f 3e 5f bd 8a be 8d 5d bd be
       0.0021434678 0.13977616 -0.27097604 -0.36985436
000320 ca f8 9c be fc dd 09 3e f0 99 63 3d 84 f4 ab be
       -0.3065856 0.13463587 0.055566728 -0.33584988
000330 3e db 88 3e 73 47 58 3e fc 81 9e be b4 8e 74 3e
       0.2672977 0.21121006 -0.30958545 0.23882562
000340 94 94 04 bd 50 cb 91 3c c4 c3 99 3e b8 b3 85 3e
       -0.032368258 0.017797142 0.3003217 0.26113677
000350 23 db 81 3d 2b be 1e be 90 18 8f 3e aa b6 9d 3e
       0.06340625 -0.15502231 0.27948427 0.30803424
000360 6d 0c 9a bd f3 62 99 be e3 28 b1 3e 27 0d 2e be
       -0.07521901 -0.29958305 0.34601507 -0.16997205
000370 9e 74 6c be 9c 51 a0 be 73 7a 24 3e 7d fb 1e 3e
       -0.23091361 -0.31312263 0.16062336 0.15525623
000380 a4 c6 04 be 1e f5 a3 be 21 38 68 3e d9 8a 32 3d
       -0.129664 -0.32022947 0.22677661 0.043589447
000390 e5 34 ac 3e c1 a0 63 bd 18 f7 97 3e b2 d6 e5 bd
       0.33634105 -0.05557323 0.29680705 -0.112225905
0003a0 ce 11 11 be c9 e3 6a 3e b4 21 89 3d 31 01 ae 3e
       -0.14166948 0.22938456 0.066958815 0.33985284
0003b0 01 1f 4a 3d 25 31 96 be 4e db 8b be 26 27 d1 bd
       0.049345974 -0.2933437 -0.27315754 -0.10212545
0003c0 fe 66 9b bd f2 bd 58 be b1 25 a1 3e 89 e5 56 be
       -0.075880036 -0.21166208 0.3147407 -0.20985998
0003d0 6f 10 6f 3c a1 5c 63 3e cc 29 b8 3d 4d 8c 17 3d
       0.01459132 0.22203304 0.08992347 0.036999036
0003e0 0b 77 24 3e f7 f8 24 be f2 53 bd be 9a 11 01 3e
       0.16061036 -0.16110598 -0.36978108 0.1260437
0003f0 a5 c2 74 be 4f e7 a6 be 82 c5 8f be c8 04 87 3e
       -0.23902376 -0.3259835 -0.28080374 0.26370835

model.lstm.bias_ih_l2 f4 [32]
000000 1a 23 85 be 29 cf 97 3e ee 3a 7e 3e 5d df a2 3d
       -0.26003343 0.29650238 0.24827167 0.079527594
000010 c6 78 6b be 49 be af be 91 e7 82 be 39 df 52 3e
       -0.2299529 -0.34324864 -0.25567296 0.20592965
000020 65 27 83 be bd f6 cc bc a2 a2 91 3d f9 47 ca bc
       -0.25615993 -0.025019998 0.07111098 -0.024692522
000030 1a b1 68 3d 7a a3 9a be d0 ca 9d 3e b0 06 8e be
       0.056809522 -0.30202848 0.30818796 -0.27739477
000040 05 e3 3c be 0d 98 a1 be 61 b6 7b 3e f5 0b 47 be
       -0.18445976 -0.31561318 0.24581291 -0.19438155
000050 78 89 c9 bd d1 4c 27 3e b3 cf 93 bc 03 1a 8a 3e
       -0.09840673 0.16337897 -0.018043375 0.2697297
000060 27 bb ae 3d be fa 12 bc 53 55 65 be e6 3b a3 be
       0.0853179 -0.008970914 -0.2239583 -0.31881636
000070 bb 92 9a 3d b5 d2 8f 3b c6 0b ae 3e a7 d2 b1 be
       0.07547518 0.004389132 0.33993357 -0.34731027

model.lstm.bias_hh_l2 f4 [32]
000000 2e 9b 45 3d 42 76 1c 3e e4 52 55 3e e9 8e 42 3e
       0.048243694 0.15279487 0.20832402 0.18999828
000010 24 6f 42 bd 96 fd b7 be 73 22 56 bd 58 66 a7 3e
       -0.047469273 -0.35935658 -0.052278947 0.3269527
000020 a9 7e 93 be f1 35 5c be 27 c4 ab 3e c6 21 9e bb
       -0.28807572 -0.21504952 0.3354809 -0.0048258035
000030 68 06 10 be 0d 16 90 3c 5a 47 2a 3e 3c 21 13 3c
       -0.14064944 0.01758864 0.16628781 0.008980092
000040 5b 0e 9d 3e bd bf d5 bc 34 3e 08 be ad f4 3c be
       0.30675015 -0.026092404 -0.13304979 -0.18452711
000050 f1 b9 a8 bb 45 ee ba bd b4 f1 83 3e ea 46 12 3e
       -0.005149119 -0.091274776 0.25770342 0.14284864
000060 95 93 7f 3e 3e 9d 98 3e 0a 6f a1 3e f7 91 a2 be
       0.24958642 0.29807466 0.3153003 -0.31751987
000070 63 e7 d1 bd 23 79 67 bd 30 d2 8a 3e 54 aa ce bc
       -0.10249212 -0.05651201 0.27113485 -0.025227703
